artifacts/models/nn_regressor.pth (torch, 145217 bytes, 7 tensors)

input_layer.weight f4 [128, 18]
0.021229824 -0.7544425 0.23534985 -0.12603103 -0.05598853 -0.46958956 0.18353297 -0.084591955
-0.13233076 -0.07260567 0.06732008 0.3630187 0.2809547 0.08009009 -0.27001917 -0.24380337
-2.1831694 -0.3110249 -0.1187043 -0.0896838 0.07693915 -0.03674461 -0.074666396 -0.12834443
0.16459353 -0.104856014 0.0879422 -0.23527543 0.09396671 0.05286549 0.082065836 -0.10596308
-0.00020873547 -0.17682952 -0.14225966 -0.16005403 -0.112299636 -0.16399567 0.5752978 -0.5508853
0.05929914 -0.294531 -0.03289833 0.3634679 -0.081201866 -0.32439184 -0.1444343 0.5681491
-0.009593043 -0.12711088 -0.036395185 -0.49501094 0.50327176 0.6064682 0.04371807 0.1005519
-0.03867028 -0.26043445 -0.24395885 0.053130753 -0.23032321 -0.2970108 -0.63292664 0.34622827
0.56287616 0.79526687 0.13447823 0.100398004 0.17184944 0.18499556 2.3269806 -0.18693963
0.07316984 -1.045713 0.71129113 -0.4774267 0.046410475 -0.6102158 -0.13716945 -0.349552
-0.6449261 0.069029786 0.42227295 0.7222192 0.12089479 -0.109529 0.08568009 -0.6814896
-1.4404228 -0.2512893 0.006695644 1.0130854 -0.5032657 0.031199507 -0.025848042 0.32171416
0.28364238 0.16999526 0.2685273 0.0033792015 0.23372573 -0.40987176 0.14721714 0.008880116
-0.09341218 -0.0044586207 1.9806615 -0.4318773 0.03256882 1.0228504 -0.24629056 -0.340104
0.117102355 0.19063444 -0.067707926 -0.24725781 0.12368959 -0.0563745 0.16519693 0.29524404
0.106546216 0.12937085 -0.22731702 0.031145323 2.733402 -0.19552404 -0.010713111 1.0797579
-0.009530856 -0.41493478 0.19672981 -0.18551514 0.4660957 -0.08938937 0.30168414 -0.32573766
-0.27683473 -0.42921218 -0.15812698 -0.46341357 0.31359196 0.3113219 1.2862918 0.19481087
-0.20166194 0.107201055 0.28666154 -0.68089134 0.13110605 -0.4426625 0.25158846 0.2348252
0.20430304 -0.17728859 0.13764401 0.36704293 -0.19131409 -0.16541472 0.01145534 -0.27105263
0.06277328 0.24888544 -0.14873785 0.2275835 -0.19372852 -0.026008716 0.08730105 0.15888938
-0.026514996 -0.0062933955 0.18810889 -0.11788175 0.07246454 -0.28801724 -0.2182496 0.2856585
0.013563466 0.15171921 0.020874137 0.20717831 -0.033157535 -0.109713055 -0.32236424 1.0040046
0.011322021 0.01437077 0.11790951 -0.09069137 0.13246861 0.30466214 -0.03363493 -0.4737329
0.34375286 -0.03595366 0.5438441 0.9278289 -0.38026538 -0.15440425 0.06804312 -1.0761682
-0.08032581 -0.06303337 -0.0794566 0.10751701 -0.25554577 -0.37465104 0.10504233 0.23699248
-0.06295202 -0.25639597 -0.19955589 0.17498724 -0.058839556 -0.24543035 -3.0488436 -0.14962222
-0.096669875 0.13008577 -0.026132746 -0.080071166 -0.009687404 -0.1672117 -0.023607522 -0.101981424
-0.2207608 0.15780823 0.046413586 0.16225809 0.008833152 0.19953346 -0.041031778 -0.2189622
0.08155057 -0.003824664 -0.20048267 0.11509581 0.066095605 0.097571716 -0.12955284 0.13766323
-0.1642132 0.20385455 -0.12377535 -0.1283167 0.14169349 0.12700634 -0.21083844 0.16889374
0.00032824278 -0.05841081 -0.23352936 0.20929088 -0.00010768067 1.1650853 -0.31057903 -0.09252318
00000000: 2bea ad3c 2523 41bf 8dff 703e 470e 01be
00000010: 3b54 65bd 0b6e f0be 11f0 3b3e 8c3e adbd
00000020: b781 07be 48b2 94bd 1cdf 893d 96dd b93e
00000030: 4bd9 8f3e 4606 a43d f43f 8abe 97a7 79be
00000040: 0cb9 0bc0 a83e 9fbe 3d1b f3bd 24ac b7bd
00000050: 4692 9d3d 8481 16bd b2ea 98bd b96c 03be
00000060: 358b 283e c0be d6bd 0a1b b43d 0bec 70be
00000070: 9e71 c03d 7c89 583d 2212 a83d 2c03 d9bd
00000080: 00e0 5ab9 cc12 35be 84ac 11be 34e5 23be
00000090: 5afd e5bd 7bee 27be b746 133f d206 0dbf
000000a0: a8e3 723d c4cc 96be 66c0 06bd 7718 ba3e
000000b0: 2a4d a6bd b016 a6be 96e6 13be 3872 113f
000000c0: 232c 1dbc 5b29 02be 1e13 15bd 1372 fdbe
000000d0: 6bd6 003f 8041 1b3f b811 333d 28ee cd3d
000000e0: ba64 1ebd aa57 85be 59d0 79be a29f 593d
000000f0: d9d9 6bbe cd11 98be 7b07 22bf d544 b13e
00000100: a718 103f 9c96 4b3f a9b4 093e 789d cd3d
00000110: 4df9 2f3e 7a6f 3d3e 40ed 1440 1a6d 3fbe
00000120: 12da 953d ecd9 85bf 2d17 363f 4671 f4be
00000130: e918 3e3d 1a37 1cbf 2676 0cbe 7bf8 b2be
00000140: e019 25bf 7d5f 8d3d 2934 d83e 5ce3 383f
00000150: b097 f73d be50 e0bd 0b79 af3d 1a76 2ebf
00000160: c65f b8bf fea8 80be 2267 db3b c8ac 813f
00000170: 05d6 00bf 1c96 ff3c 46bf d3bc b8b7 a43e
00000180: 9339 913e 3d13 2e3e 697c 893e 9875 5d3b
00000190: cc55 6f3e b6da d1be 17c0 163e e87d 113c
000001a0: e34e bfbd 9f19 92bb 5186 fd3f 051f ddbe
000001b0: e266 053d c3ec 823f 9833 7cbe 1d22 aebe
000001c0: 5cd3 ef3d ad35 433e 74aa 8abd 2731 7dbe
000001d0: f850 fd3d f3e8 66bd 6229 293e 3a2a 973e
000001e0: e734 da3d cb79 043e cbc5 68be 7a24 ff3c
000001f0: 0ff0 2e40 7437 48be 0b86 2fbc 8235 8a3f
00000200: 4f27 1cbc 5572 d4be 8a73 493e aef7 3dbe
00000210: 18a4 ee3e c611 b7bd 5876 9a3e 16c7 a6be
00000220: 48bd 8dbe b3c1 dbbe 0aec 21be 8b44 edbe
00000230: 208f a03e 9665 9f3e 36a5 a43f 807c 473e
00000240: 7880 4ebe 3a8c db3d 4dc5 923e e54e 2ebf
00000250: aa40 063e a9a4 e2be 34d0 803e 0476 703e
00000260: d134 513e 248b 35be 8df2 0c3e 0ded bb3e
00000270: d7e7 43be 7a62 29be 2eaf 3b3c 69c7 8abe
00000280: 478f 803d d3db 7e3e bc4e 18be a60b 693e
00000290: c560 46be 3b10 d5bc e5ca b23d e6b3 223e
000002a0: fa35 d9bc d438 cebb 9e9f 403e fd6b f1bd
000002b0: 4a68 943d ff76 93be d37c 5fbe d541 923e
000002c0: 4d39 5e3c 485c 1b3e 3d00 ab3c 8d26 543e
000002d0: 32d0 07bd 3db1 e0bd ed0c a5be 3983 803f
000002e0: ff7f 393c 6173 6b3c 8b7a f13d 66bc b9bd
000002f0: daa5 073e adfc 9b3e c8c4 09bd 1e8d f2be
00000300: 6000 b03e 2544 13bd 5e39 0b3f 3286 6d3f
00000310: 25b2 c2be 261c 1ebe 315a 8b3d e1bf 89bf
00000320: dc81 a4bd a417 81bd 24ba a2bd e131 dc3d
00000330: e5d6 82be 43d2 bfbe 6f20 d73d 28ae 723e
00000340: fdec 80bd 5546 83be 6158 4cbe db2f 333e
00000350: bf01 71bd 1852 7bbe 4120 43c0 9136 19be
00000360: dbfa c5bd 3435 053e 5714 d6bc 5afc a3bd
00000370: ebb7 1ebc 8b39 2bbe 9064 c1bc a3db d0bd
00000380: 1f0f 62be 7b98 213e 2c1c 3e3d fc26 263e
00000390: edb8 103c 8052 4c3e f010 28bd a137 60be
000003a0: fc03 a73d 37a7 7abb 544b 4dbe 5ab7 eb3d
000003b0: 225d 873d aed3 c73d 80a9 04be 97f7 0c3e
000003c0: 8127 28be 3fbf 503e ee7d fdbd 7465 03be
000003d0: 1918 113e f30d 023e 08e6 57be 7bf2 2c3e
000003e0: 0018 ac39 2c40 6fbd 5222 6fbe 5950 563e
000003f0: 9fd2 e1b8 8421 953f 3704 9fbe cb7c bdbd

input_layer.bias f4 [128]
0.034822527 -0.1363919 0.08998735 -1.3882409 -0.9944056 -0.6850322 -0.80019504 0.4199962
-0.0025180809 -0.21323141 0.50787294 0.6714331 0.07015834 -0.1348626 -0.593856 0.12070601
0.40489486 1.0268754 0.023799613 -0.5003614 -0.7267953 0.068495825 -0.079466276 -0.6598167
-0.41779783 -0.33889914 0.038854256 0.7747744 0.9248603 1.0218673 0.049082544 0.6284923
0.23542343 -0.4732598 -0.33700264 0.7494387 -0.9704336 0.88900906 0.18675654 -0.06945242
-0.45946166 -0.03721662 -1.3373482 1.0264589 -0.1189662 0.83739346 -0.15983741 -1.2175304
0.15361486 0.95393795 1.1058084 1.0572752 -0.39987203 -0.24727197 0.881727 0.5983175
1.0323478 0.38708997 -0.17772685 1.3922377 -1.438152 -0.13868445 -0.21328847 -0.634981
0.36845732 -0.22410707 -1.3527917 -1.0855784 0.6285725 -0.15777716 -1.3245516 0.18467675
0.040869497 0.9994413 -0.04621978 0.087010846 -0.20721419 -0.1901085 0.3392639 -0.6402935
0.1309144 -0.0779483 0.12216152 -1.092626 0.12236263 -0.8088211 -0.51988465 0.832541
0.074671805 1.3837737 -0.1190288 0.48008484 -0.06292744 -1.0269858 -0.42221978 0.08729396
0.8744015 -0.34460548 -0.15047322 0.14648876 0.17022632 0.013451376 -0.56812185 0.32645842
0.8717457 0.9776766 0.1221707 -0.20441264 -0.009893553 -0.5278067 0.18839966 0.8886386
-0.38972864 -0.12283972 0.8626862 -0.64857143 -0.43357292 -0.91451013 -0.77453196 -0.2164759
-0.94743663 -0.12336203 -0.3309034 0.061720543 -0.6357087 1.1124836 -1.2920965 0.18822883
00000000: 11a2 0e3d 51aa 0bbe 4a4b b83d e1b1 b1bf
00000010: 5e91 7ebf 455e 2fbf 95d9 4cbf be09 d73e
00000020: 6306 25bb 5659 5abe f603 023f 0ae3 2b3f
00000030: 2daf 8f3d 6c19 0abe f206 18bf b634 f73d
00000040: 614e cf3e a770 833f 68f7 c23c af17 00bf
00000050: 420f 3abf 8a47 8c3d 37bf a2bd bfe9 28bf
00000060: 99e9 d5be 3084 adbe a425 1f3d 9d57 463f
00000070: a5c3 6c3f 8ccc 823f c70a 493d dfe4 203f
00000080: d712 713e 1c4f f2be 9c8b acbe 37db 3f3f
00000090: 566e 78bf 1996 633f 1b3d 3f3e 123d 8ebd
000000a0: 8f3e ebbe 7470 18bd 3a2e abbf 0163 833f
000000b0: 8da4 f3bd 6b5f 563f 6bac 23be 09d8 9bbf
000000c0: 374d 1d3e 4735 743f 218b 8d3f cb54 873f
000000d0: 07bc ccbe dd34 7dbe dcb8 613f 562b 193f
000000e0: f923 843f a830 c63e 07fe 35be d834 b23f
000000f0: 5d15 b8bf 4c03 0ebe 4b68 5abe 1d8e 22bf
00000100: 70a6 bc3e 537c 65be 4728 adbf 3cf4 8abf
00000110: 21ea 203f 5690 21be e88a a9bf e71b 3d3e
00000120: c666 273d 63db 7f3f f450 3dbd be32 b23d
00000130: f52f 54be cdab 42be ffb3 ad3e 46ea 23bf
00000140: 6d0e 063e 5ca3 9fbd d22f fa3d 2bdb 8bbf
00000150: 4299 fa3d e60e 4fbf 2917 05bf 6821 553f
00000160: 88ed 983d 7f1f b13f 5fc5 f3bd aecd f53e
00000170: 1ae0 80bd 4574 83bf 312d d8be 2dc7 b23d
00000180: c7d8 5f3f 2170 b0be a715 1abe 2601 163e
00000190: cf4f 2e3e 2963 5c3c 6f70 11bf 8f25 a73e
000001a0: ba2a 5f3f 0349 7a3f a234 fa3d 8c51 51be
000001b0: 9218 22bc 571e 07bf d7eb 403e d27d 633f
000001c0: 838a c7be 6493 fbbd 01d9 5c3f c708 26bf
000001d0: 45fd ddbe 561d 6abf ba47 46bf dcab 5dbe
000001e0: 358b 72bf 3ba5 fcbd 2c6c a9be aece 7c3d
000001f0: cebd 22bf dd65 8e3f 6b63 a5bf 0fbf 403e

hidden_layer_1.weight f4 [128, 128]
0.085529596 0.030475013 0.046338405 -0.01445211 -0.10313718 -0.07924834 -0.030644309 -0.028660994
-0.031254284 0.019737724 0.046920445 -0.04992664 -0.05357403 -0.023225091 -0.110069014 -0.01279787
-0.078222126 0.0470623 -0.008643426 0.08201339 -0.093332835 0.054863416 0.06049022 -0.07206431
-0.027663251 -0.041491017 0.018740766 -0.07961466 -0.024382493 -0.08427121 -0.012946183 -0.1074152
-0.015592635 0.04489144 -0.079225846 0.042859375 0.120732576 -0.00044757014 0.027523985 0.0021453053
-0.08884301 -0.014873989 -0.0030725237 -0.118524276 -0.036447097 0.02313376 0.011677916 -0.017735153
0.026389122 0.03304711 0.11709755 -0.004980275 -0.011454092 -0.02611793 0.030605331 0.05189922
-0.052929338 0.02147612 0.088215254 -0.0044453805 -0.093690895 0.051233955 0.007482829 -0.049758054
0.09523858 -0.011936516 0.03639328 -0.07697945 0.084788576 -0.003630435 -0.042210076 0.033620983
0.030482365 -0.054033216 -0.044474933 0.027400352 -0.002240643 0.07377948 0.046064273 -0.040268376
-0.05062316 -0.056201328 0.00062733144 0.013345322 0.015599921 0.0005009417 -0.04288737 0.07423572
-0.037839588 0.058267217 0.008055491 -0.108328335 0.027410708 -0.069439664 -0.06738189 -0.0014807114
0.012651251 -0.043103315 -0.0339344 0.026483834 0.027292974 -0.007555884 0.018591354 -0.01020914
-0.10119422 -0.025756279 -0.020800725 0.0012117624 -0.055575933 0.0821225 0.020675652 -0.0011108966
-0.05324645 -0.0684863 0.023331823 0.058799427 -0.036900647 0.011741372 0.004200021 -0.03300527
0.012236355 0.06370216 -0.03614473 0.026396807 -0.052162006 0.10582332 -0.06557604 -0.052125495
0.04843292 0.072915725 -0.08823684 -0.0059507843 0.071561076 0.065008454 -0.014464792 0.021477628
0.04602712 0.064455695 0.055630174 -0.0155988075 0.08143093 -0.023374982 -0.0687706 -0.010612734
-0.0638755 -0.08061873 -0.028814957 -0.050817993 -0.04177665 0.045774885 0.01919928 0.012815042
-0.041119926 0.0724798 -0.06432709 -0.095221475 -0.025960596 0.019609319 -0.010682462 -0.05905539
0.0019795 0.018290207 0.021158872 -0.063739054 -0.0176462 0.04861237 0.054219507 0.0403556
-0.004640705 -0.027429696 0.00342755 0.0003247237 -0.05130248 0.009571382 0.03354493 -0.0201443
0.039564095 -0.09335463 0.053490553 -0.0053972607 -0.00066156755 -0.066238455 0.0078163 0.06762796
0.036218718 0.055388544 0.05349899 0.015377021 0.051290225 -0.043429565 -0.008860596 -0.0735083
-0.0694544 -0.012955859 -0.05984996 -0.051011797 -0.061159965 0.060941774 -6.494738e-05 0.078479476
0.0597748 0.06657549 -0.020761758 0.039553337 -0.04197113 0.012696003 0.07093091 0.025625393
0.034662917 -0.0140116485 0.050082855 -0.032094903 -0.04404338 -0.044432588 -0.028646648 0.076386146
0.022785246 -0.00808153 -0.059114777 0.053413942 -0.006147623 -0.026928572 -0.09295951 0.03136023
-0.008757889 0.06427361 -0.01621619 -0.026943602 -0.05398908 0.036954753 -0.032401312 0.027046334
-0.006028586 0.041748054 0.036525153 0.061985143 -0.02771164 0.021323156 0.037676968 -0.06705977
-0.010223514 0.062305816 -0.08465424 -0.019608691 -0.06982058 0.016223235 0.048419584 -0.056503434
0.0020109308 0.01912003 -0.09169278 -0.034202367 0.039173696 -0.034728244 0.049563687 -0.004960723
00000000: 242a af3d bca6 f93c 57cd 3d3d 8bc8 6cbc
00000010: 9639 d3bd f44c a2bd c609 fbbc 76ca eabc
00000020: 7e04 00bd 02b1 a13c a72f 403d e07f 4cbd
00000030: 7170 5bbd 8c42 bebc dd6b e1bd 28ae 51bc
00000040: ec32 a0bd 66c4 403d 289d 0dbc a3f6 a73d
00000050: 4925 bfbd 76b8 603d 98c4 773d 7496 93bd
00000060: 0b9e e2bc 7cf2 29bd 3c86 993c 030d a3bd
00000070: cbbd c7bc 6296 acbd 3a1c 54bc 80fc dbbd
00000080: 4078 7fbc 16e0 373d 2941 a2bd 508d 2f3d
00000090: a442 f73d d9a7 eab9 fb79 e13c 4098 0c3b
000000a0: 53f3 b5bd 08b2 73bc 655c 49bb dbbc f2bd
000000b0: 8d49 15bd 0383 bd3c bb54 3f3c 5049 91bc
000000c0: 002e d83c 685c 073d d7d0 ef3d 9331 a3bb
000000d0: f2a9 3bbc 45f5 d5bc 08b8 fa3c 4794 543d
000000e0: 6fcc 58bd b0ee af3c 33aa b43d 8eaa 91bb
000000f0: 03e1 bfbd b2da 513d 8532 f53b 1acf 4bbd
00000100: 720c c33d 6091 43bc 1f11 153d 67a7 9dbd
00000110: a2a5 ad3d 98ec 6dbb 79e4 2cbd 28b6 093d
00000120: 27b6 f93c ef51 5dbd 592b 36bd b476 e03c
00000130: c0d7 12bb b219 973d e4ad 3c3d 74f0 24bd
00000140: 3b5a 4fbd 5d33 66bd 8073 243a 56a6 5a3c
00000150: d096 7f3c a151 033a abaa 2fbd e608 983d
00000160: affd 1abd 9ba9 6e3d 2efb 033c 3fdb ddbd
00000170: 6c8c e03c 6236 8ebd 84ff 89bd 6e14 c2ba
00000180: 3147 4f3c 1a8d 30bd ccfe 0abd a0f4 d83c
00000190: 8495 df3c 5997 f7bb e54c 983c 3d44 27bc
000001a0: ea3e cfbd d5fe d2bc 4866 aabc 00d4 9e3a
000001b0: 97a3 63bd d72f a83d fc5f a93c 819b 91ba
000001c0: f318 5abd 8c42 8cbd 6122 bf3c abd7 703d
000001d0: 2225 17bd e25e 403c 54a0 893b 8930 07bd
000001e0: fe7a 483c 4776 823d 7f0c 14bd 1e3e d83c
000001f0: d4a7 55bd e6b9 d83d bb4c 86bd 8b81 55bd
00000200: 9961 463d d754 953d 84b5 b4bd ccfe c2bb
00000210: 9d8e 923d 2723 853d bcfd 6cbc daf1 af3c
00000220: ef86 3c3d 5901 843d 77dc 633d 2492 7fbc
00000230: 42c5 a63d e47c bfbc 9ad7 8cbd 08e1 2dbc
00000240: 28d1 82bd 6f1b a5bd 580d ecbc 8726 50bd
00000250: fe1d 2bbd 727e 3b3d cf47 9d3c 2ff6 513c
00000260: 5e6d 28bd 4a70 943d ecbd 83bd 7a03 c3bd
00000270: 51ab d4bc b9a3 a03c 7e05 2fbc 11e4 71bd
00000280: 80ba 013b 58d5 953c 5f55 ad3c 9f89 82bd
00000290: c38e 90bc c41d 473d 4615 5e3d ea4b 253d
000002a0: 0e11 98bb 3eb4 e0bc bfa0 603b ad3f aa39
000002b0: 8d22 52bd 49d1 1c3c 6966 093d a905 a5bc
000002c0: f60d 223d b630 bfbd e918 5b3d 81db b0bb
000002d0: 0c6d 2dba 07a8 87bd f00f 003c 8780 8a3d
000002e0: 145a 143d 19df 623d c221 5b3d e7ef 7b3c
000002f0: b315 523d 33e3 31bd 092c 11bc 858b 96bd
00000300: 1c3e 8ebd d044 54bc 3b25 75bd bff1 50bd
00000310: df82 7abd 159e 793d 5c34 88b8 d9b9 a03d
00000320: 6cd6 743d bb58 883d 9014 aabc ae02 223d
00000330: ebe9 2bbd e502 503c 3a44 913d 58ec d13c
00000340: b4fa 0d3d 1d91 65bc ae23 4d3d f275 03bd
00000350: d566 34bd f2fe 35bd 60ac eabc 5770 9c3d
00000360: 20a8 ba3c 6568 04bc 5622 72bd 94c8 5a3d
00000370: 0072 c9bb 4f99 dcbc 8e61 bebd 9673 003d
00000380: 407d 0fbc e2a1 833d d1d7 84bc d4b8 dcbc
00000390: a723 5dbd de5d 173d 3db7 04bd 4690 dd3c
000003a0: 728b c5bb 0200 2b3d 669b 153d 22e4 7d3d
000003b0: 8503 e3bc e6ad ae3c 2a53 1a3d a256 89bd
000003c0: 8780 27bc 6234 7f3d 345f adbd 68a2 a0bc
000003d0: 18fe 8ebd 97e6 843c 9d53 463d 2570 67bd
000003e0: d2c9 033b 9ca1 9c3c 6dc9 bbbd c817 0cbd
000003f0: 9974 203d 343f 0ebd 4b03 4b3d 908d a2bb

hidden_layer_1.bias f4 [128]
0.093453065 -0.04406817 0.07327112 0.051649116 -0.024259623 -0.04983711 0.0007799193 -0.09393298
-0.070151225 -0.0337792 -0.057787646 -0.007849962 -0.03139251 0.017023912 0.025562726 0.080858186
0.036398336 0.14651303 0.029691484 0.5222615 0.02633766 0.16720316 0.1153692 -0.08045749
0.12480898 0.0051284907 0.06796207 -0.10101313 0.16213168 -0.026005458 0.056056976 0.06593315
-0.04820156 0.01097253 -0.08615778 0.43901235 -0.040504113 0.052048575 0.38539746 -0.027198285
-0.009147864 0.4353494 0.020449659 0.030817844 0.097294964 -0.07520999 0.028943451 -0.08845485
-0.01694016 0.035219252 -0.03586486 0.0024618418 0.1632142 0.0571765 0.030537177 -0.11692293
0.024905188 -0.054911915 -0.07539558 0.019893616 0.09398291 0.04971906 -0.057600074 -0.005271228
0.049020343 -0.020434938 -0.018985568 -0.08888185 -0.026428696 -0.049833518 -0.058370464 -0.14857762
0.055827573 0.003019091 0.03291229 1.1451699 0.0058505326 -0.05024637 0.07892847 -0.011306039
-0.015742587 -0.032904487 0.068340234 -0.12775846 0.060876466 0.06940783 -0.015580506 0.039840166
-0.058947664 0.30297843 -0.034728866 0.06400158 0.2052714 -0.012880962 -0.038859565 -0.054823123
0.052453402 0.22828215 -0.014223274 -0.037413914 0.04994118 0.05556313 0.06628259 0.027213335
-0.055306368 -0.0801534 0.07457506 0.037102234 -0.004550358 -0.09006445 -0.06049357 0.0029821321
-0.05430495 0.092038356 0.06998802 0.21309583 -0.09988564 0.061551623 0.0051662745 0.15648715
-0.009379995 -0.061790135 0.0037113274 -0.079680055 -0.06297843 -0.0015460742 -0.108029984 0.048519
00000000: 5264 bf3d d380 34bd 2b0f 963d 068e 533d
00000010: 1ebc c6bc ff21 4cbd 8073 4c3a ef5f c0bd
00000020: 72ab 8fbd 0f5c 0abd bdb2 6cbd 219d 00bc
00000030: 6f95 00bd bb75 8b3c ec68 d13c fa98 a53d
00000040: 6c16 153d 8307 163e 8e3b f33c eeb2 053f
00000050: 14c2 d73c 4e37 2b3e b046 ec3d e6c6 a4bd
00000060: da9b ff3d e60c a83b b32f 8b3d f9df cebd
00000070: d905 263e 6609 d5bc 009c 653d f607 873d
00000080: 006f 45bd 20c6 333c 7d73 b0bd 3ac6 e03e
00000090: a4e7 25bd e330 553d d152 c53e f0ce debc
000000a0: ece0 15bc 1ee6 de3e 0b86 a73c b475 fc3c
000000b0: 9542 c73d b207 9abd d11a ed3c d127 b5bd
000000c0: 17c6 8abc 1042 103d 08e7 12bd da56 213b
000000d0: a021 273e e831 6a3d 1a29 fa3c 4a75 efbd
000000e0: f705 cc3c 51eb 60bd ff68 9abd f0f7 a23c
000000f0: 1d7a c03d 37a6 4b3d 0eee 6bbd 44ba acbb
00000100: 8ec9 483d 2c67 a7bc 9f87 9bbc b007 b6bd
00000110: fe80 d8bc 3b1e 4cbd de15 6fbd bb24 18be
00000120: 74ab 643d f1db 453b 0acf 063d ed94 923f
00000130: d3b5 bf3b 23cf 4dbd 40a5 a13d f73c 39bc
00000140: 99f6 80bc dbc6 06bd f7f5 8b3d 1dd3 02be
00000150: 9a59 793d b125 8e3d 6145 7fbc 712f 233d
00000160: 1b73 71bd fd1f 9b3e db3f 0ebd 4313 833d
00000170: aa32 523e ac0a 53bc 352b 1fbd 368e 60bd
00000180: 61d9 563d ccc2 693e bc08 69bc 553f 19bd
00000190: 1f8f 4c3d 2a96 633d 2bbf 873d 80ee de3c
000001a0: ee88 62bd 7727 a4bd cfba 983d 83f8 173d
000001b0: 2b1b 95bb b673 b8bd 1bc8 77bd e06f 433b
000001c0: de6e 5ebd 9b7e bc3d e155 8f3d cb35 5a3e
000001d0: d890 ccbd 8e1d 7c3d da49 a93b 2b3e 203e
000001e0: 8dae 19bc a717 7dbd be39 733b 4c2f a3bd
000001f0: d6fa 80bd a4a5 caba d33e ddbd dcbb 463d

hidden_layer_2.weight f4 [128, 128]
-0.009539095 0.06126947 -0.003097169 -0.034419984 -0.011493348 -0.0765013 0.037806816 0.014879778
0.005504988 -0.039732 -0.00946372 -0.014417477 -0.01635892 -0.0565022 0.0058618337 -0.018420957
0.028335232 0.10909208 -0.019388892 -0.043183565 0.088099234 0.05876267 -0.005435612 -0.084834196
0.07260599 -0.011349534 -0.04061203 0.02541629 0.040793628 -0.009039447 -0.06837587 -0.051468085
0.030885594 0.04822635 -0.016943209 0.0057298364 0.042274147 -0.021869853 0.04690666 0.018492214
-0.070210636 -0.054996446 0.031260982 -0.04151296 0.11465889 0.0072037056 -0.020960167 -0.035824575
-0.02966861 -0.02308464 0.07417103 0.054592717 -0.080917746 0.059731618 0.07938742 0.091948695
-0.082863435 -0.002871157 0.059675567 0.0042464132 -0.002420499 -0.080655895 -0.081958346 0.033896737
0.068924 0.028003618 0.02779261 -0.00434833 0.08595041 0.02134125 0.0047422126 0.027689325
-0.057699002 -0.016849898 -0.05951019 -0.01713016 -0.029684931 0.023483533 0.027026016 -0.058133285
0.06103505 -0.047965493 0.07623901 -0.05431892 -0.0002214387 0.1215361 -0.06557636 -0.041838493
-0.013808899 0.16347165 0.015430303 0.035602856 -0.0821532 -0.022995163 0.05544855 0.0046233907
-0.039807014 -0.053723622 -0.07612005 -0.071153 0.07933252 0.0089468025 0.028704405 -0.023003252
-0.006736407 0.0030396953 0.028826103 0.062098287 0.08950475 0.08792764 -0.060891047 0.01953628
0.06037914 0.011723361 -0.024690889 0.0074523822 -0.058906347 0.03453487 -0.06419498 -0.011986738
-0.084148586 0.03917148 0.06913551 -0.07898843 0.036995836 0.06713288 0.079677455 -0.018581606
-0.1277403 0.02699977 -0.063405514 -0.050894722 -0.0798169 -0.04514239 -0.03741616 0.029866442
-0.0073151086 0.019013403 0.04464542 0.083683416 -0.025299262 0.065758586 0.033041716 0.0009944249
0.048822865 -0.0879114 -0.0175664 -0.08253718 0.06457626 0.10533821 0.054004863 0.074823074
0.07383617 -0.038321905 -0.069847874 -0.058035687 -0.028327184 -0.05713414 0.04455438 -0.07265665
0.008915868 0.07443732 -0.08393057 0.0045546326 -0.008580162 -0.031783845 -0.02281366 0.043333407
-0.0003006406 0.017095124 -0.034014963 0.07596729 -0.041198663 0.009765312 0.08392225 -0.05552568
-0.022301361 0.06271874 -0.068148926 0.026202058 0.029000094 -0.006840071 0.037972994 -0.021682007
0.053619154 -0.07217563 -0.039551 0.011057293 -0.045755316 -0.04224234 0.05354274 0.076667264
0.035452254 0.07086866 0.011835384 0.07489478 0.0022826756 0.04072561 0.052406643 0.064969465
-0.010947271 0.0028872758 0.07659098 -0.07540728 -0.099687554 -0.0038794624 -0.015896926 -0.10643749
-0.023441395 -0.08679098 -0.06787866 -0.026700426 -0.055274703 0.038928807 -0.065306194 0.061355043
-0.0649891 0.05227767 -0.07553109 -0.038684156 -0.06545734 -0.024664523 0.017007355 0.04195299
0.08018658 0.009689792 -0.03576306 0.04571251 0.048064563 0.071053 0.051513396 -0.0022294712
-0.055768598 0.041584056 -0.06530572 -0.07539236 -0.026173368 -0.059928622 -0.082226805 0.023593307
-0.06312202 -0.06864722 -0.042673144 0.014026131 -0.013308076 -0.0495283 -0.06112448 0.054647163
0.102124654 0.08742625 -0.029400663 -0.013601774 0.06974033 -0.0789309 -0.047298227 -0.010331101
00000000: dd49 1cbc b2f5 7a3d e0f9 4abb f8fb 0cbd
00000010: 984e 3cbc b7ac 9cbd 52db 1a3d 50ca 733c
00000020: 3063 b43b 06be 22bd b80d 1bbc 4837 6cbc
00000030: 2403 86bc da6e 67bd a014 c03b 8ce7 96bc
00000040: 4a1f e83c ab6b df3d 74d5 9ebc 40e1 30bd
00000050: 5f6d b43d 20b1 703d 381d b2bb 8dbd adbd
00000060: 73b2 943d 65f3 39bc cd58 26bd d335 d03c
00000070: 3817 273d 301a 14bc a608 8cbd 33d0 52bd
00000080: c903 fd3c fe88 453d 7ccc 8abc 5ac1 bb3b
00000090: a827 2d3d 6828 b3bc 3321 403d fc7c 973c
000000a0: 98ca 8fbd f443 61bd 840b 003d 7e09 2abd
000000b0: 48d2 ea3d 100d ec3b a8b4 abbc cabc 12bd
000000c0: 960b f3bc 001c bdbc fbe6 973d 9d9c 5f3d
000000d0: 34b8 a5bd 24a9 743d df95 a23d 994f bc3d
000000e0: 4eb4 a9bd 052a 3cbb 5e6e 743d 7f25 8b3b
000000f0: 3ca1 1ebb eb2e a5bd c7d9 a7bd 4ed7 0a3d
00000100: 0728 8d3d d867 e53c 54ad e33c 707c 8ebb
00000110: c506 b03d d8d3 ae3c 9064 9b3b b9d4 e23c
00000120: ca55 6cbd cc08 8abc f5c0 73bd 8d54 8cbc
00000130: d02d f3bc 8a60 c03c aa65 dd3c 2b1d 6ebd
00000140: e3ff 793d 7777 44bd 3323 9c3d 847d 5ebd
00000150: 0032 68b9 ebe7 f83d e64c 86bd d75e 2bbd
00000160: b83e 62bc 1d65 273e 62cf 7c3c 4dd4 113d
00000170: f03f a8bd 5a60 bcbc 051e 633d d07f 973b
00000180: ae0c 23bd 4d0d 5cbd d4e4 9bbd aab8 91bd
00000190: 1779 a23d 9c95 123c 8025 eb3c 5171 bcbc
000001a0: 14bd dcbb a035 473b b824 ec3c c65a 7e3d
000001b0: 444e b73d 6813 b43d e468 79bd 8c0a a03c
000001c0: 1e50 773d 5713 403c 8c44 cabc 1d33 f43b
000001d0: c847 71bd 7074 0d3d a878 83bd 0664 44bc
000001e0: 1856 acbd 4672 203d eb96 8d3d b0c4 a1bd
000001f0: f288 173d f77c 893d ef2d a33d 7438 98bc
00000200: 5ace 02be 9f2e dd3c c0da 81bd fc76 50bd
00000210: 0b77 a3bd 3ae7 38bd b041 19bd 78aa f43c
00000220: 94b3 efbb ffc1 9b3c 1ede 363d 3662 ab3d
00000230: 6640 cfbc 70ac 863d c056 073d 5d57 823a
00000240: 7cfa 473d e40a b4bd 69e7 8fbc 4109 a9bd
00000250: 8f40 843d 8fbb d73d 3434 5d3d d73c 993d
00000260: 6b37 973d 6ef7 1cbd 670c 8fbd d4b6 6dbd
00000270: 690e e8bc 7d05 6abd a77e 363d 02cd 94bd
00000280: dc13 123c 9872 983d cae3 abbd 073f 953b
00000290: cf93 0cbc c72f 02bd b6e3 babc 5f7e 313d
000002a0: 4c9f 9db9 130b 8c3c 4653 0bbd bd94 9b3d
000002b0: eebf 28bd b0fe 1f3c 6edf ab3d e56e 63bd
000002c0: 58b1 b6bc af72 803d aa91 8bbd b3a5 d63c
000002d0: 9b91 ed3c ad22 e0bb 9289 1b3d 779e b1bc
000002e0: c29f 5b3d d1d0 93bd 3b00 22bd a629 353c
000002f0: ed69 3bbd 4e06 2dbd a24f 5b3d ba03 9d3d
00000300: 6236 113d 9723 913d 33e9 413c 6f62 993d
00000310: f198 153b e6cf 263d 59a8 563d b60e 853d
00000320: 2f5c 33bc 7338 3d3b bbdb 9c3d 226f 9abd
00000330: fd28 ccbd 943e 7ebb 453a 82bc e6fb d9bd
00000340: 2b08 c0bc 78bf b1bd f803 8bbd daba dabc
00000350: ba67 62bd d073 1f3d 41bf 85bd 6d4f 7b3d
00000360: 0119 85bd 1c21 563d 0bb0 9abd 4773 1ebd
00000370: 7f0e 86bd 410d cabc 0253 8b3c e6d6 2b3d
00000380: dd38 a43d efc1 1e3c 497c 12bd 0a3d 3b3d
00000390: 59df 443d 3c84 913d b6ff 523d 521c 12bb
000003a0: 9d6d 64bd 0b54 2a3d 01bf 85bd 4f67 9abd
000003b0: 8869 d6bc b777 75bd 8766 a8bd c046 c13c
000003c0: 1e46 81bd ea96 8cbd 09ca 2ebd dbcd 653c
000003d0: 1e0a 5abc 30de 4abd aa5d 7abd b4d5 5f3d
000003e0: bb26 d13d 890c b33d a9d9 f0bc fad9 5ebc
000003f0: 05d4 8e3d 86a6 a1bd c9bb 41bd c743 29bc

hidden_layer_2.bias f4 [128]
0.07115464 -0.12723897 -0.06839861 -0.047174416 -0.25986207 -0.052193664 0.077201165 -0.023429021
0.24620232 0.0010648933 -0.31312877 0.17653726 0.0012503122 -0.09645426 0.06381558 -0.3026129
-0.18077403 -0.15684104 -0.06028886 -0.036839183 -0.09144711 0.2458103 -0.011940887 -0.6503272
-0.01910359 -0.07494517 -0.024632376 -0.13429575 0.045437 0.15840559 0.053194687 -0.025486454
-0.23908843 -0.43685895 -0.043839812 -0.023225525 -0.62052846 0.45036137 0.01720516 0.306092
1.27811 -0.17972001 -0.28158146 -0.18295196 0.5476459 -0.563378 0.07239675 -0.021083266
-0.014560279 0.09339153 -0.32265007 0.014614565 0.042304777 -0.0047477284 0.13318418 -0.027316859
-0.042262938 -0.6165967 -0.031571645 -0.090802826 -0.03973051 0.20924997 -0.12429062 -0.22387737
-0.00090509426 -0.12655716 -0.10939037 0.0006028132 0.019666456 -0.42156538 0.06281353 -0.30261666
-0.017218057 -0.7362295 -0.19267012 -0.1336912 -0.19481285 -0.1293595 -0.13801777 -0.087396994
0.029027574 0.028166708 -0.748032 0.03576248 -0.035525333 -0.07386471 0.08154387 0.025305508
-0.08217384 -0.119849704 -0.057172034 0.22841668 -0.024234023 -0.3546655 0.098472446 -0.027674517
0.3470153 -0.10021869 0.027348457 -0.67701083 -0.7608667 -0.3794137 0.04486579 -0.17926566
0.17772624 0.23439644 -0.2169204 -0.035698548 -0.3588132 0.45866862 0.013534233 -0.81511754
0.12608404 0.15205261 0.013887418 0.2162278 -0.5481484 0.032914676 0.07355888 -0.0064662034
-0.017876826 0.12963517 0.26169267 0.38756445 0.26631257 0.011296898 0.08558198 0.21685965
00000000: 86b9 913d ef4a 02be 9214 8cbd f639 41bd
00000010: a40c 85be 06c9 55bd a51b 9e3d 38ee bfbc
00000020: 761c 7c3e e493 8b3a 6a52 a0be 2fc6 343e
00000030: 84e1 a33a d089 c5bd beb1 823d 14f0 9abe
00000040: d41c 39be f09a 20be 74f1 76bd afe4 16bd
00000050: 9f48 bbbd b2b5 7b3e b6a3 43bc d87b 26bf
00000060: 227f 9cbc da7c 99bd d6c9 c9bc d384 09be
00000070: 261c 3a3d 1335 223e ace2 593d f8c8 d0bc
00000080: 99d3 74be faab dfbe 6091 33bd 7543 bebc
00000090: f4da 1ebf c495 e63e d6f1 8c3c 17b8 9c3e
000000a0: 1c99 a33f 8608 38be 722b 90be c257 3bbe
000000b0: 8632 0c3f 8a39 10bf bf44 943d d0b6 acbc
000000c0: 3d8e 6ebc 0f44 bf3d 6432 a5be ee71 6f3c
000000d0: c647 2d3d d592 9bbb 6f61 083e 9bc7 dfbc
000000e0: e71b 2dbd 48d9 1dbf 4551 01bd d5f6 b9bd
000000f0: 76bc 22bd a045 563e 158c febd 1c40 65be
00000100: d943 6dba 3398 01be 0f08 e0bd 1c06 1e3a
00000110: 8c1b a13c 6bd7 d7be 61a4 803d 92f0 9abe
00000120: e20c 8dbc 8979 3cbf 514b 45be 59e6 08be
00000130: 057d 47be d176 04be 8854 0dbe 32fd b2bd
00000140: 3ccb ed3c debd e63c 067f 3fbf ae7b 123d
00000150: 0383 11bd 6246 97bd 7900 a73d 7f4d cf3c
00000160: c24a a8bd c373 f5bd 392d 6abd 10e6 693e
00000170: 6e86 c6bc b796 b5be ecab c93d abb5 e2bc
00000180: fdab b13e 753f cdbd df09 e03c 9550 2dbf
00000190: 29c8 42bf 8342 c2be 31c5 373d 6b91 37be
000001a0: defd 353e 9f05 703e 6220 5ebe a438 12bd
000001b0: 5db6 b7be 9dd6 ea3e b0be 5d3c 8bab 50bf
000001c0: 2d1c 013e aeb3 1b3e 0e88 633c d26a 5d3e
000001d0: 7453 0cbf 8ad1 063d 0aa6 963d 72e2 d3bb
000001e0: 6c72 92bc 15bf 043e 95fc 853e d96e c63e
000001f0: 1f5a 883e a016 393c 9b45 af3d 7510 5e3e

output_layer.weight f4 [1, 128]
-0.051671818 -0.007327102 -0.03978139 0.008495691 -0.027245218 -0.00831055 0.027521553 -0.00079886196
0.07086914 -0.0043903 -0.0044674706 -0.0049280236 0.0040130443 -0.008235043 0.016862007 0.0029054075
0.0014488616 0.001175572 0.0092529245 -0.0005054807 0.07775372 0.025295952 -0.008267644 -0.104184836
0.17143266 0.024581801 0.08169684 0.007520932 0.114995405 0.033168457 0.032287806 -0.0024830136
-0.0042575644 -0.05078425 -0.0017682151 0.096690364 -0.053457692 0.16056068 0.086412676 0.00946251
-0.842745 0.028567463 -0.008793811 0.0027890934 0.009611921 -0.066530146 0.20190553 -0.010107742
0.0074692583 0.008157107 0.007371693 0.00016392928 -0.0060109054 0.047370523 0.02596747 0.0041344026
-0.00178649 -0.068076834 0.012628677 0.0049664946 0.00118655 -0.033413153 0.011036492 0.00058749935
0.06633107 -0.020627955 -0.017401122 0.0023297435 0.0009861453 -0.0030633344 -0.0014173897 0.008402507
0.018657751 -0.09042845 0.0016034701 0.0025197105 -0.005356114 -0.029869748 0.0004712069 -0.00613835
0.006699258 -0.0027968774 -0.083069846 -0.0024553537 0.009017846 0.004228394 0.006286757 0.0048275827
-9.531559e-05 0.005234396 -0.0026748183 0.075252764 0.028468825 -0.033857074 0.022635847 0.050573908
0.008197472 -0.0020553153 0.10291344 -0.080693334 -0.16289511 0.007927573 0.032291297 -0.016786462
0.11760081 0.12068025 -0.0064434237 0.0032862686 0.00063001615 0.0058423677 0.03395331 -0.080308944
0.14505628 0.017292067 -0.008929645 0.14227283 -0.022099039 0.050725482 0.15259764 0.02452569
0.12523331 0.21066809 0.039165538 0.18661308 -0.009017299 -0.0069090286 0.02035148 0.007416688
00000000: d4a5 53bd 3018 f0bb d0f1 22bd 8331 0b3c
00000010: 5d31 dfbc f928 08bc e174 e13c b86a 51ba
00000020: d723 913d 81dc 8fbb dc63 92bb 427b a1bb
00000030: db7f 833b 46ec 06bc 3122 8a3c a668 3e3b
00000040: bae7 bd3a a715 9a3a 9499 173c 3c82 04ba
00000050: 583d 9f3d 7539 cf3c 0375 07bc dc5e d5bd
00000060: 0b8c 2f3e c65f c93c ac50 a73d 2672 f63b
00000070: b682 eb3d a6db 073d 3840 043d 0eba 22bb
00000080: 0a83 8bbb 2503 50bd 74c3 e7ba 9905 c63d
00000090: 74f6 5abd 056a 243e 21f9 b03d a508 1b3c
000000a0: 23be 57bf 5006 ea3c eb13 10bc 39c9 363b
000000b0: 527b 1d3c f540 88bd 53c0 4e3e f19a 25bc
000000c0: aec0 f43b 63a5 053c 3e8e f13b 6ee4 2b39
000000d0: 21f7 c4bb 9807 423d bbb9 d43c e279 873b
000000e0: a828 eaba de6b 8bbd 83e8 4e3c fabd a23b
000000f0: 0386 9b3a 3bdc 08bd 67d2 343c 6a02 1a3a
00000100: 96d8 873d f5fb a8bc cc8c 8ebc 9cae 183b
00000110: 8c41 813a 39c2 48bb b5c7 b9ba abaa 093c
00000120: 24d8 983c 8d32 b9bd 872b d23a ba21 253b
00000130: 5782 afbb 67b1 f4bc 520c f739 3624 c9bb
00000140: 7385 db3b d14b 37bb 8620 aabd 00ea 20bb
00000150: 96bf 133c 578e 8a3b 2401 ce3b b330 9e3b
00000160: 2be4 c7b8 4c85 ab3b 014c 2fbb 1f1e 9a3d
00000170: 7437 e93c b7ad 0abd d06e b93c 9626 4f3d
00000180: b14e 063c 78b2 06bb 48c4 d23d 8c42 a5bd
00000190: facd 26be a7e2 013c e143 043d c383 89bc
000001a0: b2d8 f03d 3527 f73d 5b23 d3bb 705e 573b
000001b0: ab27 253a 5571 bf3b a012 0b3d 0479 a4bd
000001c0: a289 143e 18a8 8d3c a54d 12bc f8af 113e
000001d0: 0b09 b5bc 86c5 4f3d 8e42 1c3e 1aea c83c
000001e0: 293d 003e 60b9 573e 0b6c 203d 8017 3f3e
000001f0: 4bbd 13bc 2265 e2bb 26b8 a63c b007 f33b
