artifacts/models/nn_regressor.pth (torch, 145729 bytes, 7 tensors)

input_layer.weight f4 [128, 19]
-0.09405531 -0.12680344 -0.0522081 0.9029096 0.046402164 -0.16110404 -0.019842554 -0.16574109
-0.058259312 0.13166182 -0.2720551 0.10601341 -0.015265404 -0.15854207 0.48609036 0.51259184
-0.34980863 0.020986574 0.083339624 -0.084626116 0.00027710307 0.08036604 0.39864904 0.021639833
-0.1900151 -0.11798017 -0.07163264 0.029938182 0.33191913 0.049580835 0.14082253 0.1429286
-0.12957847 0.22737636 0.7418338 -0.31063625 -0.40503412 -0.2100963 -0.22216725 0.21263911
0.087368645 -0.30510667 0.020621771 0.18937342 -0.04957306 -0.15338883 -0.042038564 0.027975943
-0.037528913 -0.18179464 -0.0050425413 -0.048275303 -0.15058446 -0.43369302 0.27181828 0.040064543
0.013083488 -0.0124341315 0.312623 -0.58556527 0.3451005 0.15422593 0.07598493 -0.059186358
-0.41504157 0.36496606 0.4449288 0.23131901 -0.1746463 0.13697192 -0.15341514 -0.017356753
0.6058026 -0.39614615 0.18861918 0.13190158 0.09187547 -1.3145514 0.39959103 -0.09051405
-0.05762725 -0.20109235 -0.23290151 -0.25870597 0.09148389 0.11105724 0.23325674 -0.015177834
-0.01680057 -0.15513094 -0.0276117 -0.61573505 -2.6435375 -0.2548845 -0.08227361 -0.15383035
-0.061201543 -0.09657675 -0.121908695 -0.16891989 -0.022572294 0.044470266 -0.18273924 0.08811064
0.19006826 0.063255265 -0.06255241 -0.18092883 0.14393769 0.10875322 -0.13818094 -0.108604394
-0.086594984 -0.09701583 -0.047938347 -0.056499615 -0.17231128 -0.15960929 -0.2249576 -0.11007188
-0.09032491 0.053175047 -0.0057891607 0.045352355 -0.1691875 0.115076974 -0.012063637 0.18144928
-0.13018596 0.14032133 -0.16361658 0.09617396 -0.13348503 -0.080431856 0.35603452 -0.19754606
0.23365743 0.020008547 -0.30512935 0.0531775 0.15140852 -0.03638493 0.075049296 -0.0031926322
-0.22487475 -0.14105354 -0.20767076 0.14592887 0.28463024 0.020980714 0.17462969 -0.035223454
0.0058375644 -0.92103857 0.41992137 -0.19347972 0.069748536 0.065483406 0.2071161 0.10783043
-0.1805264 0.12445301 -0.08747899 -0.14009035 -0.19426674 -0.17458838 0.1950396 -0.24658927
-2.7294202 -0.338282 -0.13976672 0.0038596874 -0.5852294 0.9044329 -0.10284053 -0.27595478
-0.59714395 0.10282206 0.23026316 -0.28187415 -0.14993311 -0.11039972 0.35130852 0.1397678
-0.07907644 0.25881812 -0.21659032 -0.43445805 0.54063404 0.034676302 -0.013510869 0.1109523
0.26585278 0.20757152 -0.13836984 -0.027131297 0.020783968 -0.022092624 0.28947017 -0.081276245
0.18181828 -0.072071284 -0.1654585 -0.2543627 0.14963515 -0.1509429 -0.21588081 -0.15058424
0.14620951 0.034985866 -0.75464237 0.2625767 -0.20264834 -0.08514678 -0.21656395 0.06330191
0.2121988 -0.32591146 0.0033136555 -0.030613806 0.28954506 -0.1560392 -0.020159854 -0.09089505
-0.15926252 -1.9303666 -0.15747994 -0.23667936 -0.118853256 0.20626032 -0.37196243 0.3294011
0.01343068 -0.2587521 0.047540095 -0.14446086 0.23805177 0.16159631 -0.20904465 -0.08695246
-0.08870016 -0.12359793 0.27884358 -0.37580174 -0.10059908 0.03482119 -0.04326806 0.12854266
-1.3820238 -0.05703829 -0.11859014 0.06414313 0.1167273 -0.22771293 -0.029251983 -0.04271002
00000000: 12a0 c0bd c3d8 01be 29d8 55bd 1525 673f
00000010: 3210 3e3d 75f8 24be da8c a2bc 08b8 29be
00000020: 51a1 6ebd 5bd2 063e ce4a 8bbe 8f1d d93d
00000030: bf1b 7abc da58 22be d6e0 f83e 3839 033f
00000040: 1e1a b3be 09ec ab3c f7ad aa3d 7550 adbd
00000050: 2548 9139 f396 a43d ba1b cc3e 0546 b13c
00000060: 5293 42be 969f f1bd 22b4 92bd eb40 f53c
00000070: 4ef1 a93e 4615 4b3d c833 103e e05b 123e
00000080: 38b0 04be 59d5 683e d2e8 3d3f b70b 9fbe
00000090: a260 cfbe 7c23 57be d07f 63be 11be 593e
000000a0: 55ee b23d f136 9cbe fdee a83c 1beb 413e
000000b0: 1f0d 4bbd f611 1dbe a130 2cbd ce2d e53c
000000c0: ebb7 19bd 6028 3abe e73b a5bb 53bc 45bd
000000d0: d032 1abe 030d debe c42b 8b3e b81a 243d
000000e0: 205c 563c 87b8 4bbc 1f10 a03e 9be7 15bf
000000f0: 03b1 b03e 67ed 1d3e fd9d 9b3d 656d 72bd
00000100: 5480 d4be d5dc ba3e b5cd e33e e4de 6c3e
00000110: 7bd6 32be 5e42 0c3e dc18 1dbe c02f 8ebc
00000120: e115 1b3f abd3 cabe 6325 413e 3511 073e
00000130: 3529 bc3d 3843 a8bf 3297 cc3e 6e5f b9bd
00000140: 8d0a 6cbd 27eb 4dbe bc7d 6ebe 1c75 84be
00000150: e85b bb3d fa71 e33d dbda 6e3e 73ac 78bc
00000160: 59a1 89bc a5da 1ebe ef31 e2bc d0a0 1dbf
00000170: b82f 29c0 3980 82be 117f a8bd b485 1dbe
00000180: 78ae 7abd 08ca c5bd 44ab f9bd 56f9 2cbe
00000190: 88e9 b8bc 7426 363d ff1f 3bbe 5a73 b43d
000001a0: 41a1 423e fa8b 813d 7a1b 80bd 6845 39be
000001b0: 6764 133e 02ba de3d 4e7f 0dbe fb6b debd
000001c0: b658 b1bd 3cb0 c6bd 005b 44bd 246c 67bd
000001d0: 5e72 30be 9e70 23be 495b 66be 5e6d e1bd
000001e0: 44fc b8bd 14ce 593d 00b3 bdbb 64c3 393d
000001f0: 7d3f 2dbe 7aad eb3d 90a6 45bc d7cd 393e
00000200: 784f 05be 65b0 0f3e 1b8b 27be daf6 c43d
00000210: 4db0 08be 75b9 a4bd 284a b63e 8449 4abe
00000220: e543 6f3e f7e8 a33c ea39 9cbe a6d0 593d
00000230: d60a 1b3e 5d08 15bd 72b3 993d 7b3b 51bb
00000240: 9145 66be 5770 10be a5a7 54be 616e 153e
00000250: 0ebb 913e bfdf ab3c 20d2 323e 7846 10bd
00000260: 0a49 bf3b 2fc9 6bbf efff d63e 8c1f 46be
00000270: 52d8 8e3d 2a1c 863d 3e16 543e 33d6 dc3d
00000280: eadb 38be 38e1 fe3d 2f28 b3bd d873 0fbe
00000290: dced 46be 4cc7 32be 76b8 473e e681 7cbe
000002a0: d2ae 2ec0 4c33 adbe 021f 0fbe cff2 7c3b
000002b0: 98d1 15bf ea88 673f 0e9e d2bd f249 8dbe
000002c0: 6dde 18bf 5f94 d23d 1bca 6b3e cf51 90be
000002d0: 1188 19be 4019 e2bd b6de b33e 4a1f 0f3e
000002e0: d4f2 a1bd cf83 843e dac9 5dbe 4971 debe
000002f0: fe66 0a3f bd08 0e3d b15c 5dbc f63a e33d
00000300: db1d 883e a18d 543e d3b0 0dbe 7442 debc
00000310: 2443 aa3c 97fb b4bc 6f35 943e 2974 a6bd
00000320: 922e 3a3e 1c9a 93bd f46d 29be d43b 82be
00000330: f539 193e c790 1abe dc0f 5dbe c132 1abe
00000340: f2b7 153e 574d 0f3d 3e30 41bf 7470 863e
00000350: 0c83 4fbe 6f61 aebd f1c2 5dbe 6fa4 813d
00000360: a44a 593e dedd a6be ea29 593b cec9 fabc
00000370: 403f 943e bdc8 1fbe 4726 a5bc 2f27 babd
00000380: b715 23be 4116 f7bf 6c42 21be 135c 72be
00000390: 5669 f3bd e835 533e dc71 bebe 43a7 a83e
000003a0: 5b0c 5c3c 287b 84be 67b9 423d 8ced 13be
000003b0: d8c3 733e 8179 253e cd0f 56be 2214 b2bd
000003c0: 6ea8 b5bd e920 fdbd 96c4 8e3e 1669 c0be
000003d0: e406 cebd aaa0 0e3d d939 31bd b0a0 033e
000003e0: 28e6 b0bf fba0 69bd 63df f2bd 795d 833d
000003f0: b90e ef3d 942d 69be dba1 efbc b4f0 2ebd

input_layer.bias f4 [128]
0.3664762 0.17223887 -0.21326868 0.5245363 0.024618763 -0.077780485 -0.12029904 0.26369348
0.34028113 0.013882426 0.014149614 -0.20323953 0.16766703 0.20736581 0.14566997 -0.21669579
0.06595425 -0.40386215 0.055903908 0.06811853 0.123227544 -0.14054005 0.29268885 0.10654777
0.18627928 0.2308995 -0.063729286 -0.20277695 -0.27972806 -0.16145632 0.2607072 -0.036578864
-0.18827648 0.014166398 0.21098569 -0.18630342 -0.23387791 -0.28629494 0.31913573 0.4607438
0.37546822 0.0441068 -0.6067014 0.14583167 0.6486108 0.14991915 -0.32883632 0.08858439
0.2789109 -0.16493097 0.022914037 -0.06947936 0.27546006 0.13968928 0.29117945 0.22694488
0.11211629 0.18155846 -0.10155914 -0.029085502 -0.12763402 -0.33885503 0.034052476 -0.049072072
-0.0766609 0.22106497 -0.42947584 0.17831837 -0.4761268 0.10599494 -0.30219737 -0.19565748
0.10050384 -0.008259037 0.5751113 0.18101913 -0.11171908 -0.023084765 0.03017995 0.11971326
-0.49851754 -0.28321347 0.028638288 0.6535277 -0.18475647 0.099363446 -0.26738462 -0.31390104
-0.1487296 0.12592737 -0.372725 0.5773718 -0.41571158 0.28966343 0.10064085 -0.09804563
0.52559936 0.28333965 -0.07594697 0.17609955 -0.1988783 0.39968124 0.39871758 -0.35262868
0.29158738 -0.33402842 0.4156661 0.10206878 0.1483561 -0.44214556 -0.20907505 0.34521022
-0.43554613 -0.42470583 0.8586368 -0.56712556 -0.21170719 0.22902079 0.22476515 -0.046139985
-0.3388639 0.44026393 0.18079916 -0.48578176 -0.34990343 0.11388655 -0.61477184 0.2429762
00000000: c5a2 bb3e 635f 303e 1b63 5abe 0348 063f
00000010: 4aad c93c 604b 9fbd 585f f6bd d502 873e
00000020: 5439 ae3e 1d73 633c c8d3 673c 061e 50be
00000030: e8b0 2b3e b457 543e 822a 153e 80e5 5dbe
00000040: 0613 873d 05c7 cebe 7ffb 643d ba81 8b3d
00000050: b95e fc3d bbe9 0fbe 50db 953e b835 da3d
00000060: ffbf 3e3e eb70 6c3e 8084 82bd c3a4 4fbe
00000070: 8438 8fbe ce54 25be 6a7b 853e b8d3 15bd
00000080: 8dcb 40be 2e1a 683c a20c 583e 53c6 3ebe
00000090: b17d 6fbe 4095 92be c265 a33e 9de6 eb3e
000000a0: 5f3d c03e 55a9 343d c850 1bbf e654 153e
000000b0: 5b0b 263f 6884 193e 3c5d a8be bc6b b53d
000000c0: 69cd 8e3e aae3 28be 38b6 bb3c 324b 8ebd
000000d0: 1a09 8d3e b50a 0f3e 7915 953e 3d64 683e
000000e0: 3a9d e53d 76ea 393e 3dfe cfbd b844 eebc
000000f0: 7eb2 02be 687e adbe 9c7a 0b3d ccff 48bd
00000100: 6400 9dbd db5e 623e 42e4 dbbe 1799 363e
00000110: e4c6 f3be e013 d93d 9db9 9abe 6f5a 48be
00000120: f5d4 cd3d e950 07bc 7f3a 133f 145d 393e
00000130: f9cc e4bd 431c bdbc f13b f73c 3a2c f53d
00000140: b13d ffbe 5b01 91be d89a ea3c 974d 273f
00000150: cd30 3dbe 107f cb3d a3e6 88be a3b7 a0be
00000160: 924c 18be 1bf3 003e d0d5 bebe a3ce 133f
00000170: 26d8 d4be c44e 943e ca1c ce3d 26cc c8bd
00000180: ae8d 063f e511 913e 168a 9bbd 7153 343e
00000190: c1a6 4bbe 05a3 cc3e b624 cc3e bf8b b4be
000001a0: f14a 953e c605 abbe 30d2 d43e 7009 d13d
000001b0: a9ea 173e e760 e2be c517 56be 65bf b03e
000001c0: e7ff debe 0b73 d9be 9fcf 5b3f 242f 11bf
000001d0: c5c9 58be 6d84 6a3e d628 663e 48fd 3cbd
000001e0: 927f adbe 466a e13e 6a23 393e 63b8 f8be
000001f0: 8b26 b3be 5a3d e93d b061 1dbf c1ce 783e

hidden_layer_1.weight f4 [128, 128]
0.04365777 0.08113869 -0.014934106 0.06852536 -0.097154506 0.06557577 0.07429273 0.05261027
-0.013967978 0.025418282 0.063031055 0.05554123 0.104147226 0.055007596 0.087147325 0.005993188
-0.049336717 0.00035467136 0.04101999 -0.051864248 0.062480822 0.008955201 0.017254954 -0.055704646
-0.0020156652 0.01352431 0.031129466 -0.06642913 0.02545842 -0.031342503 0.055577412 -0.09785715
-0.0028530213 -0.06426918 0.025467591 0.029434053 -0.09180657 0.017901776 0.04632092 0.056268603
-0.01229222 -0.01631004 -0.0539713 -0.07963572 -0.04819951 0.09705606 0.05960953 -0.063843474
0.0011578316 -0.112540215 -0.08609387 -0.052942537 -0.0675382 -0.082125776 -0.032193866 -0.015247814
-0.052805964 -0.0478975 0.08409057 0.03700415 -0.08737276 0.05395549 -0.050861213 0.030404922
-0.07041939 0.03319322 0.014010597 0.07908321 -0.015011698 0.05618022 -0.020751558 -0.041529734
0.08764353 -0.04920181 0.014736465 -0.10072519 0.07262525 0.077086516 -0.08827772 -0.031469177
-0.0122640105 0.056509178 -0.07926584 0.020278204 0.03892561 -0.02952512 0.049337104 0.020192042
-0.006989233 -0.096619666 -0.007217946 -0.024732588 0.014531391 0.140014 0.08042424 -0.051108103
-0.00021581384 -0.006341092 -0.034305654 -0.02887399 0.0846931 -0.065598674 -0.08435445 -0.075063296
0.02633717 -0.06340064 0.03240232 -0.058589328 0.041168325 -0.101408005 -0.045276977 -0.093288176
-0.0782304 0.05253336 -0.08914987 -0.08656129 0.05686015 0.060406163 0.0021604572 0.011557564
0.0010770682 -0.0413758 0.037483558 -0.09166511 -0.02338937 -0.0917592 0.04922403 -0.02094747
-0.022355968 0.0976759 -0.015026061 -0.00027552486 0.059548266 0.026646458 -0.03847182 0.09488485
0.07009006 0.043136187 0.12997684 0.023097757 -0.036454488 0.063216195 0.027430229 -0.018775092
0.08307552 -0.050452303 0.03235611 0.06407087 -0.034164365 -0.0855106 0.034129295 -0.030194117
-0.07032666 0.058392048 -0.031980045 0.03353981 0.007963166 0.03736324 0.018302556 -0.028661275
0.026014833 -0.04928926 -0.06930091 -0.022180315 -0.06995726 -0.08756106 0.006113394 -0.062203635
-0.046328448 -0.024881369 0.02865932 0.012581156 0.08878219 -0.050877485 -0.04574755 -0.034859303
0.06818854 -0.07433359 -0.012829438 0.001437133 0.011854925 0.06821119 -0.002658502 0.06290082
0.018899968 0.022458084 -0.032474827 -0.08274696 -0.008684044 0.07352898 -0.03179906 0.02297845
-0.027050296 0.08148064 0.022080775 0.0712863 -0.06740859 -0.005037196 0.017608177 0.021390172
-0.03721461 0.0064822338 0.024659583 0.01402367 0.06634419 -0.017933242 -0.014186542 -0.07444981
0.06279946 -0.08796861 0.06518603 0.035890236 -0.013253991 -0.076682515 -0.08202454 -0.020903623
0.03501694 -0.026021877 -0.07623847 0.08130839 -0.053888347 0.057058446 -0.08320958 0.10203398
-0.05538304 0.12079731 0.12805013 -0.058020685 0.0017747628 0.03681457 -0.028685035 -0.055893585
0.06871443 -0.011206683 0.073886454 -0.065432385 -0.07613747 0.06896601 -0.027651725 -0.029601645
0.07097396 0.0398611 -0.017185744 0.056253217 -0.044662748 0.10151704 -0.0019106243 0.0103042945
-0.06830217 0.08706022 -0.02468943 -0.074996635 -0.0054369173 0.026373213 -0.06442119 0.101878874
00000000: 7dd2 323d 0b2c a63d 2eae 74bc 0657 8c3d
00000010: f1f8 c6bd 974c 863d c926 983d de7d 573d
00000020: f2d9 64bc 003a d03c 6d16 813d 337f 633d
00000030: 244b d53d a54f 613d 4c7a b23d 8162 c43b
00000040: 4c15 4abd 2ff3 b939 9404 283d 9b6f 54bd
00000050: e4eb 7f3d d6b8 123c 435a 8d3c 8e2a 64bd
00000060: 4019 04bb 1195 5d3c 3903 ff3c ff0b 88bd
00000070: 2d8e d03c ff60 00bd 24a5 633d 5469 c8bd
00000080: c1f9 3abb 8f9f 83bd 69a1 d03c af1f f13c
00000090: 1505 bcbd bfa6 923c 01bb 3d3d e879 663d
000000a0: 4f65 49bc a29c 85bc 0311 5dbd 0d18 a3bd
000000b0: d96c 45bd 54c5 c63d 1f29 743d 5ec0 82bd
000000c0: 62c2 973a 7c7b e6bd fc51 b0bd 46da 58bd
000000d0: 7851 8abd 8f31 a8bd b7dd 03bd f8d1 79bc
000000e0: 114b 58bd 2b30 44bd ad37 ac3d aa91 173d
000000f0: 7df0 b2bd 6f00 5d3d d953 50bd be13 f93c
00000100: 0b38 90bd 9df5 073d b48c 653c 61f6 a13d
00000110: a0f3 75bc 3b1d 663d 2cff a9bc 151b 2abd
00000120: 737e b33d d687 49bd 3771 713c 0249 cebd
00000130: 8cbc 943d 89df 9d3d f3ca b4bd d3e5 00bd
00000140: fdee 48bc 2b76 673d 2156 a2bd 7a1e a63c
00000150: 7670 1f3d aade f1bc b415 4a3d c869 a53c
00000160: f005 e5bb 88e0 c5bd 8584 ecbb ff9b cabc
00000170: 1215 6e3c d45f 0f3e 77b5 a43d bb56 51bd
00000180: 164c 62b9 efc8 cfbb 1684 0cbd 2589 ecbc
00000190: 9373 ad3d 9958 86bd 07c2 acbd c9ba 99bd
000001a0: 0cc1 d73c 32d8 81bd 4cb8 043d 5dfb 6fbd
000001b0: 1ea0 283d 00af cfbd 5a74 39bd df0d bfbd
000001c0: 4337 a0bd 382d 573d 3594 b6bd 0c47 b1bd
000001d0: 30e6 683d 746c 773d 7596 0d3b f05b 3d3c
000001e0: 692c 8d3a ac79 29bd 5c88 193d ebba bbbd
000001f0: 109b bfbc 3fec bbbd 239f 493d 079a abbc
00000200: dd23 b7bc 4d0a c83d de2f 76bc 5274 90b9
00000210: e2e8 733d ac49 da3c a194 1dbd fd52 c23d
00000220: 618b 8f3d 92af 303d a618 053e 8237 bd3c
00000230: 4d51 15bd 7e77 813d 5cb5 e03c 39ce 99bc
00000240: 8023 aa3d 13a7 4ebd d787 043d 9737 833d
00000250: efef 0bbd 2e20 afbd 29cb 0b3d a759 f7bc
00000260: 6d07 90bd 802c 6f3d 82fd 02bd 0a61 093d
00000270: f077 023c 320a 193d 3eef 953c 0dcb eabc
00000280: 0f1d d53c 89e3 49bd a3ed 8dbd 7eb3 b5bc
00000290: c045 8fbd 3753 b3bd de52 c83b 3dc9 7ebd
000002a0: e6c2 3dbd 03d4 cbbc f3c6 ea3c 3121 4e3c
000002b0: 70d3 b53d e964 50bd c861 3bbd a1c8 0ebd
000002c0: 6fa6 8b3d 363c 98bd 9032 52bc 2e5e bc3a
000002d0: 293b 423c 4fb2 8b3d 433a 2ebb 25d2 803d
000002e0: 1bd4 9a3c 04fa b73c 5304 05bd 3d77 a9bd
000002f0: 8547 0ebc 5d96 963d bb3f 02bd 4d3d bc3c
00000300: 9598 ddbc 52df a63d bee2 b43c 8dfe 913d
00000310: 840d 8abd 100f a5bb 063f 903c 713a af3c
00000320: 596e 18bd eb68 d43b e502 ca3c 89c3 653c
00000330: 76df 873d bce8 92bc ab6e 68bc 2479 98bd
00000340: 019d 803d e328 b4bd 4180 853d a401 133d
00000350: 4427 59bc b90b 9dbd 7bfc a7bd 133e abbc
00000360: ec6d 0f3d d52b d5bc ea22 9cbd 0385 a63d
00000370: 07ba 5cbd 1eb6 693d c969 aabd 31f7 d03d
00000380: 54d9 62bd 9464 f73d 931f 033e 19a7 6dbd
00000390: 289f e83a e0ca 163d e1fc eabc acf0 64bd
000003a0: 27ba 8c3d 3c9c 37bc c851 973d 6a01 86bd
000003b0: f6ed 9bbd 0d3e 8d3d df85 e2bc 267f f2bc
000003c0: cc5a 913d 6545 233d 1ec9 8cbc c669 663d
000003d0: 49f0 36bd 2ae8 cf3d ea6d faba 58d3 283c
000003e0: 02e2 8bbd a14c b23d 7d41 cabc d697 99bd
000003f0: 2b28 b2bb a30c d83c 42ef 83bd dfa5 d03d

hidden_layer_1.bias f4 [128]
0.09242338 0.011191787 -0.018575387 -0.15757988 0.46195096 -0.08442059 0.113984495 -0.07379528
0.15206584 0.48019296 0.09918493 -0.030272597 -0.0077041336 0.033597108 0.073799275 -0.07651882
0.033784445 0.341711 0.00403022 0.0024896832 -0.09958155 0.30122992 0.018324867 0.030974662
0.06272985 0.11011984 0.008788169 0.13364135 0.08663907 -0.09035452 -0.06930983 0.028912168
0.033292472 0.008755738 0.005501266 0.013421991 -0.023745105 -0.05526132 0.015856883 -0.08305841
-0.055721335 0.26866174 0.019683756 0.13525665 0.05461213 -0.047506217 0.36822188 0.02853054
0.006940761 -0.01933141 -0.040766127 0.079666495 0.019274684 -0.012628292 -0.069348276 0.17735451
0.039612483 0.0057811313 0.14044748 0.13998638 -0.12330217 -0.055651873 -0.11287438 0.02226077
0.08784879 0.37436914 0.28439376 0.41122133 -0.09858298 0.0214304 0.12589802 -0.08186787
-0.03006874 -0.09611024 0.027334653 -0.17735429 0.072514996 0.016175825 -0.007776083 0.05426985
0.06064229 0.101202436 0.10280085 -0.014527317 -0.04330612 -0.03520427 -0.10592817 -0.002399516
-0.07255618 -0.014720693 0.05951712 -0.033854876 -0.117160216 0.06110971 0.083940856 0.03187337
0.11549171 0.32142305 -0.08450287 0.06787839 0.024336057 -0.029557677 0.022820888 -0.054980855
0.017961886 -0.04932978 -0.05102979 -0.092432916 -0.030842543 0.53069556 0.06425891 0.03997555
-0.03747174 -0.024187578 0.07052025 -0.009377605 -0.13832249 -0.18858604 0.069475554 -0.021557149
-0.28502572 -0.06633588 0.43159872 -0.053258337 -0.005518305 -0.046241183 -0.071796015 0.54069024
00000000: 7848 bd3d c25d 373c 692b 98bc 9f5c 21be
00000010: d684 ec3e b4e4 acbd b470 e93d fb21 97bd
00000020: 26b7 1b3e dadb f53e 7821 cb3d 3dfe f7bc
00000030: f572 fcbb 1f9d 093d 1324 973d e6b5 9cbd
00000040: 8f61 0a3d bff4 ae3e f00f 843b f429 233b
00000050: 69f1 cbbd cf3a 9a3e 081e 963c 93be fd3c
00000060: 8278 803d 8386 e13d 41fc 0f3c 47d9 083e
00000070: d36f b13d ca0b b9bd 50f2 8dbd 36d9 ec3c
00000080: b05d 083d 3a74 0f3c f743 b43b e9e7 5b3c
00000090: 1885 c2bc b259 62bd 4be6 813c 871a aabd
000000a0: 0e3c 64bd 088e 893e d43f a13c b880 0a3e
000000b0: f8b0 5f3d e195 42bd 9487 bc3e e1b8 e93c
000000c0: 536f e33b e85c 9ebc 62fa 26bd 3028 a33d
000000d0: f1e5 9d3c e5e6 4ebc 7806 8ebd 6c9c 353e
000000e0: b340 223d a56f bd3b 77d1 0f3e 9758 0f3e
000000f0: d985 fcbd 38f3 63bd af2a e7bd 385c b63c
00000100: 11ea b33d 50ad bf3e 0f9c 913e 9a8b d23e
00000110: e0e5 c9bd ce8e af3c 69eb 003e 58aa a7bd
00000120: b852 f6bc 72d5 c4bd ecec df3c 5d9c 35be
00000130: be82 943d 2a83 843c 83ce febb 104a 5e3d
00000140: 0d64 783d 3943 cf3d 4189 d23d fc03 6ebc
00000150: c261 31bd 5a32 10bd def0 d8bd 3341 1dbb
00000160: 5698 94bd 102f 71bc 39c8 733d 69ab 0abd
00000170: b2f1 efbd 2d4e 7a3d 2fe9 ab3d a78d 023d
00000180: eb86 ec3d 9091 a43e d70f adbd d303 8b3d
00000190: 695c c73c f122 f2bc dff2 ba3c 9b33 61bd
000001a0: ce24 933c 060e 4abd 9d04 51bd 784d bdbd
000001b0: 80a9 fcbc aadb 073f 2d9a 833d 67bd 233d
000001c0: f87b 19bd 0725 c6bc ec6c 903d 87a4 19bc
000001d0: 69a4 0dbe b31c 41be 3349 8e3d 9e98 b0bc
000001e0: e4ee 91be 1bdb 87bd 82fa dc3e 6a25 5abd
000001f0: e6d2 b4bb 6567 3dbd ca09 93bd ad6a 0a3f

hidden_layer_2.weight f4 [128, 128]
-0.0568495 -0.031953122 -0.09383134 -0.0012886053 -0.054298352 0.06711037 0.047782484 0.011934127
0.016773311 -0.118148066 -0.049555365 -0.081614725 0.007036937 -0.06459152 -0.016076174 -0.0552118
0.03283471 0.022060148 -0.08520706 -0.024721976 -0.09444226 -0.013829053 -0.04818706 -0.03995775
-0.009149539 -0.04144451 -0.06763885 -0.034778886 0.033078782 0.054438062 -0.015413968 0.07949823
-0.0581116 -0.0015255496 -0.017020218 -0.022624144 -0.029582746 -0.021148158 0.03716507 -0.054933906
0.07922646 -0.08233518 0.0073788185 -0.030643592 0.034585774 -0.016925836 0.07457963 -0.048107702
-0.04151244 -0.070965946 0.0023273618 0.02319479 -0.04572064 0.0008916522 -0.08408414 -0.07419161
0.027521592 0.07962104 2.7176311e-05 -0.09335379 -0.07388628 0.02714318 0.021439008 0.08107527
0.034276873 0.031465422 -0.09120841 -0.09643987 0.0071022473 0.03451423 0.029649211 -0.07765273
-0.027138634 0.06408752 -0.071323425 0.0656279 -0.017927408 0.03284811 -0.0063391156 -0.08123211
0.015197693 0.020561097 -0.021206282 -0.0018272673 0.087492265 0.024862064 -0.010107054 -0.08036405
0.08420035 0.05799032 0.029202817 0.06655053 -0.027898567 0.033383936 -0.028527748 -0.043563526
-0.05150477 -0.059296545 0.022478106 0.0095154345 0.049763642 0.03460826 0.018852869 -0.016117215
0.04583206 -0.09538058 0.005209512 -0.078775175 0.045601137 0.07885599 0.0395044 0.070462584
0.06668294 -0.009948013 0.03260869 -0.08258282 0.011306885 0.039197277 0.019315448 -0.05093926
-0.13008995 0.00068915996 -0.15755661 0.0730111 -0.06035342 -0.019725181 -0.0502186 -0.076477826
-0.057421345 0.08997242 0.044034425 -0.033109322 -0.011098676 0.066279925 -0.062256772 0.02010329
-0.03803081 -0.024163486 0.046410155 -0.009129504 0.024594115 0.071295 0.07720583 -0.0071211318
-0.041423213 -0.045416445 -0.082329884 -0.0780457 -0.040047146 -0.029198145 -0.053819563 0.08580196
-0.049392037 -0.03534031 -0.080175854 0.0338107 0.030216679 0.072283134 0.08146803 -0.05200839
-0.00967037 0.051395636 -0.013784381 -0.011887832 -0.01552286 -0.011587455 0.038022455 -0.014622626
0.08717447 -0.0243751 -0.0020856373 0.084679246 -0.094438836 -0.09012071 -0.055995785 -0.04214924
-0.05929607 0.023904251 -0.03206513 0.018415377 0.052696344 0.08348854 -0.000750137 -0.05414277
-0.071494736 -0.048588403 -0.059283067 -0.013793091 0.082771786 -0.011529342 -0.04388259 0.065219425
-0.076115526 0.018845879 0.03631412 -0.059392028 -0.04488271 -0.006943531 -0.008477587 0.018581532
-0.014346353 -0.005204494 -0.070570186 -0.05551826 0.00799854 0.028043102 0.031348065 0.02880259
-0.04756596 -0.05616882 -0.09330236 0.02071432 0.031667262 -0.016401812 0.06332374 -0.018168129
0.050503645 -0.0238728 -0.08523091 -0.06282296 -0.07170649 0.081963085 -0.027193101 0.06908717
-0.0059071933 -0.079382345 -0.07866668 0.042707093 0.07368616 -0.07802607 -0.015356403 0.06461669
-0.02007611 -0.0002973834 0.08787169 -0.0020875877 0.07578768 0.023525095 0.036869276 0.024061894
0.040389962 -0.07775314 0.022824116 -0.059365056 -0.014632421 0.017396072 -0.038704146 0.050658207
-0.0029876325 0.020620722 0.013494364 0.07145196 0.08149531 0.03482282 -0.03916937 -0.08320148
00000000: 05db 68bd 47e1 02bd a52a c0bd 6be6 a8ba
00000010: f367 5ebd 2971 893d 91b7 433d 5b87 433c
00000020: 2f68 893c 9df7 f1bd 91fa 4abd 9f25 a7bd
00000030: 1b96 e63b 8f48 84bd 2eb2 83bc c525 62bd
00000040: b07d 063d 7cb7 b43c 0a81 aebd be85 cabc
00000050: f26a c1bd 4193 62bc cb5f 45bd bdaa 23bd
00000060: f3e7 15bc b8c1 29bd 3d86 8abd 4e74 0ebd
00000070: 9e7d 073d 72fa 5e3d de8a 7cbc f8cf a23d
00000080: 6e06 6ebd f3f4 c7ba fc6d 8bbc 4556 b9bc
00000090: 8457 f2bc e73e adbc 673a 183d 6002 61bd
000000a0: 7b41 a23d 599f a8bd 04ca f13b 4508 fbbc
000000b0: d0a9 0d3d 0da8 8abc 34bd 983d 950c 45bd
000000c0: f308 2abd 9856 91bd a786 183b 0003 be3c
000000d0: 9145 3bbd c4bd 693a 4e34 acbd c5f1 97bd
000000e0: f674 e13c 5b10 a33d aff8 e337 4630 bfbd
000000f0: b151 97bd 605b de3c dca0 af3c cb0a a63d
00000100: e865 0c3d e3e1 003d 7acb babd 4482 c5bd
00000110: f8b9 e83b cb5e 0d3d e7e2 f23c 6508 9fbd
00000120: d751 debc 5140 833d 0412 92bd ec67 863d
00000130: 80dc 92bc bd8b 063d 5bb8 cfbb 055d a6bd
00000140: bfff 783c bf6f a83c ccb8 adbc eb80 efba
00000150: 252f b33d 87ab cb3c 0f98 25bc e895 a4bd
00000160: 3c71 ac3d 4287 6d3d bf3a ef3c a54b 883d
00000170: 898b e4bc 98bd 083d 06b3 e9bc ab6f 32bd
00000180: aaf6 52bd efe0 72bd 0124 b83c a0e6 1b3c
00000190: f6d4 4b3d 64c1 0d3d 5571 9a3c 4008 84bc
000001a0: 66ba 3b3d e556 c3bd 8eb4 aa3b e154 a1bd
000001b0: 42c8 3a3d 407f a13d 5ecf 213d b04e 903d
000001c0: 1191 883d fefc 22bc b190 053d 2e21 a9bd
000001d0: 8340 393c 538d 203d 6e3b 9e3c afa5 50bd
000001e0: 4d36 05be bea8 343a 8556 21be d886 953d
000001f0: 2635 77bd b496 a1bc 05b2 4dbd 68a0 9cbd
00000200: a532 6bbd 7643 b83d 715d 343d a49d 07bd
00000210: 39d7 35bc c5bd 873d f500 7fbd a8af a43c
00000220: 32c6 1bbd 81f2 c5bc 9318 3e3d ea93 15bc
00000230: 9979 c93c 1d03 923d 171e 9e3d 6258 e9bb
00000240: 63ab 29bd 9806 3abd 929c a8bd 6dd6 9fbd
00000250: 7a08 24bd f330 efbc e771 5cbd f0b8 af3d
00000260: 4e4f 4abd 00c1 10bd 3d33 a4bd 177d 0a3d
00000270: f888 f73c 2e09 943d b6d8 a63d c006 55bd
00000280: 7970 1ebc 3b84 523d e2d7 61bc 2ec5 42bc
00000290: 9853 7ebc 4fd9 3dbc 6fbd 1b3d bd93 6fbc
000002a0: 8788 b23d 4aae c7bc 30af 08bb 506c ad3d
000002b0: 2669 c1bd 3591 b8bd d65b 65bd aea4 2cbd
000002c0: 70e0 72bd d9d2 c33c ba56 03bd d8db 963c
000002d0: 1fd8 573d 0afc aa3d d8a4 44ba cfc4 5dbd
000002e0: d56b 92bd a204 47bd cdd2 72bd 6bfc 61bc
000002f0: 4184 a93d 91e5 3cbc 3bbe 33bd c391 853d
00000300: 75e2 9bbd ac62 9a3c 1dbe 143d 0e45 73bd
00000310: efd6 37bd 8f86 e3bb 94e5 0abc 4c38 983c
00000320: f70c 6bbc 768a aabb 1a87 90bd 1d67 63bd
00000330: 4f0c 033c a6ba e53c d466 003d 69f3 eb3c
00000340: 86d4 42bd 4711 66bd 4f15 bfbd 14b1 a93c
00000350: 88b5 013d 185d 86bc e1af 813d 54d5 94bc
00000360: e9dc 4e3d e490 c3bc 8b8d aebd 53a9 80bd
00000370: dada 92bd 43dc a73d 11c4 debc 937d 8d3d
00000380: 2191 c1bb 3693 a2bd ff1b a1bd a2ed 2e3d
00000390: c5e8 963d 22cc 9fbd 6c99 7bbc c155 843d
000003a0: a776 a4bc 20ea 9bb9 13f6 b33d e9cf 08bb
000003b0: 9236 9b3d b3b7 c03c 3d04 173d 731d c53c
000003c0: f26f 253d 0a3d 9fbd a4f9 ba3c c628 73bd
000003d0: d2bc 6fbc 3582 8e3c 3d88 1ebd fb7e 4f3d
000003e0: 28cc 43bb caec a83c 7717 5d3c 6855 923d
000003f0: 03e7 a63d 60a2 0e3d 1070 20bd 8a65 aabd

hidden_layer_2.bias f4 [128]
-0.00233453 -0.10659475 0.18864608 -0.039893 -0.3994501 -0.17249483 0.031156523 -0.16135134
-0.018208355 -0.17854519 0.19474044 -0.46600962 -0.5573594 0.24691288 -0.11268229 -0.06958969
0.21356393 0.05826715 -0.49987015 0.15061708 -0.075070076 0.25586218 -0.06476138 0.122302026
0.06899322 -0.11892678 -0.0010908865 -0.070291415 0.063401975 -0.14241438 -0.122710004 0.022567814
0.37805587 0.02353952 -0.20475906 0.042294182 -0.05884653 -0.13878283 0.0067796293 0.09244114
0.024039699 -0.19291744 0.0123564135 0.1485503 0.21594311 -0.13437866 -0.13291429 0.21094947
0.3094886 -0.007992812 -0.28791028 -0.17573836 -0.22203842 0.3963186 0.23511325 -0.10033547
-0.12305666 -0.20525698 0.016907098 0.051133122 -0.06315378 -0.027135357 -0.2383241 -0.0055445386
-0.090018995 -0.03996419 0.09657978 0.0148488255 -0.17836754 -0.22887598 0.30811247 -0.06330673
-0.2287819 -0.052544013 -0.012194525 0.02580365 0.07877785 0.025242373 0.038680725 -0.0063239066
-0.43752074 -0.022887284 -0.045806557 -0.16539042 -0.038366694 0.06805657 0.08955335 -0.04024485
0.012839526 -0.038080603 0.19417934 0.34138703 0.012887838 -0.36185154 0.08103596 0.021715006
-0.06200864 -0.06021816 -0.025592655 0.24464135 -0.123150155 -0.049117856 0.074775025 0.0952374
0.08991651 0.15723273 -0.02988738 0.20198318 0.23089904 0.019403944 -0.01513371 -0.07478435
0.08782737 0.25858328 -0.04737036 -0.030762063 -0.28078607 -0.012740696 0.14607015 -0.09345538
0.20722613 -0.12496004 0.07561559 0.041009225 -0.32417896 0.062248085 0.033585362 -0.026354127
00000000: eafe 18bb 594e dabd 702c 413e d866 23bd
00000010: b984 ccbe 7ca2 30be f73b ff3c 4939 25be
00000020: b029 95bc 8dd4 36be 0a6a 473e d098 eebe
00000030: 1baf 0ebf bbd6 7c3e f9c5 e6bd 0a85 8ebd
00000040: 81b0 5a3e 89a9 6e3d fbee ffbe 5d3b 1a3e
00000050: 57be 99bd 5e00 833e 9da1 84bd 7c79 fa3d
00000060: 514c 8d3d e28f f3bd 14fc 8eba f2f4 8fbd
00000070: e5d8 813d 13d5 11be 624f fbbd 23e0 b83c
00000080: 8a90 c13e f4d5 c03c 5cac 51be aa3c 2d3d
00000090: 0f09 71bd 161d 0ebe a727 de3b c851 bd3d
000000a0: e7ee c43c 268c 45be 8e72 4a3c 921d 183e
000000b0: 3120 5d3e 8f9a 09be af1a 08be 2303 583e
000000c0: 4a75 9e3e 49f4 02bc fa68 93be c2f4 33be
000000d0: 0a5e 63be 46ea ca3e 87c1 703e af7c cdbd
000000e0: 2105 fcbd e32e 52be c180 8a3c f770 513d
000000f0: c556 81bd f84a debc 3c0b 74be f6ae b5bb
00000100: e15b b8bd 7eb1 23bd 9fcb c53d 7d48 733c
00000110: fba5 36be 775e 6abe ebc0 9d3e f5a6 81bd
00000120: cd45 6abe 6438 57bd 8ccb 47bc 2d62 d33c
00000130: 4856 a13d 18c9 ce3c ae6f 1e3d c638 cfbb
00000140: b802 e0be 1d7e bbbc a89f 3bbd 1b5c 29be
00000150: 6526 1dbd 3e61 8b3d bf67 b73d c9d7 24bd
00000160: e05c 523c 68fa 1bbd f3d6 463e 48ca ae3e
00000170: 8327 533c 9b44 b9be 2ef6 a53d abe3 b13c
00000180: c6fc 7dbd 51a7 76bd b0a7 d1bc 4383 7a3e
00000190: 2636 fcbd ce2f 49bd a623 993d d30b c33d
000001a0: 2626 b83d 9e01 213e 61d6 f4bc aed4 4e3e
000001b0: cc70 6c3e 05f5 9e3c 61f3 77bc 8a28 99bd
000001c0: d6de b33d 0765 843e 6c07 42bd b900 fcbc
000001d0: 31c3 8fbe 5abe 50bc 6a93 153e 8965 bfbd
000001e0: 1633 543e 0deb ffbd 59dc 9a3d 4af9 273d
000001f0: c9fa a5be d9f7 7e3d ce90 093d 9ce4 d7bc

output_layer.weight f4 [1, 128]
0.04223948 0.00051920797 0.011391203 -0.0023941305 -0.10560611 -9.121178e-05 0.07865861 0.0056280587
-0.0038538268 0.007494355 0.02317171 -0.1082755 -0.06751678 0.0005496665 -0.0007951849 0.097597
0.0060347603 0.0008202378 -0.086411595 0.093197234 0.0012591578 0.0357953 -0.003416204 0.0080935275
0.03900242 -0.0024616916 -0.032870077 -0.035863403 0.014037313 -0.011129233 0.002751448 0.07253793
0.019315578 0.0049833106 0.002420531 0.005294906 0.0047566546 -0.009716303 0.008424195 0.05031562
-0.00055287743 -0.012035631 0.0014695495 0.021390576 0.0720101 0.0030513345 -0.01175945 0.0033198325
0.06354523 0.0092717875 -0.00064240285 0.0077121854 0.00035150308 0.03523664 0.014549145 -0.0075259553
0.044672936 0.0061307536 -0.019221919 0.013992084 0.017642763 0.33580464 -0.05397612 0.0025087383
-0.0027335288 0.0031288792 0.0032989448 0.0027760447 -0.016433816 0.0027170004 0.016055927 -0.001897666
0.003137812 -0.031418074 0.0063586617 -0.0019176105 -0.0006077785 0.008352908 0.010022079 0.01910083
-0.005490799 0.034329712 0.011738323 0.015726604 0.0006206333 0.03655948 0.069728374 -0.06634682
0.014317569 0.002902652 0.039026108 0.0065174294 0.011850564 -0.059567887 0.0034852612 0.006295559
0.00027034184 0.000549279 -0.0025447756 0.04247494 -0.004107474 0.0034461352 -0.0005730656 -0.00042982772
0.0042372276 0.017224899 0.021330481 0.017856926 -0.006186916 0.007973262 0.015365002 0.01180497
0.016057115 0.025307065 0.014783615 -0.045548834 -0.00031072658 -0.0045648674 0.034206204 -0.0023632892
0.063228376 0.026742624 0.020439837 0.008703432 0.00017607865 0.019582862 0.008295745 0.029956205
00000000: 4e03 2d3d 751b 083a 2ba2 3a3c d8e6 1cbb
00000010: 0448 d8bd f448 bfb8 c417 a13d 946b b83b
00000020: 7c90 7cbb 3593 f53b 99d2 bd3c 8cbf ddbd
00000030: 3d46 8abd 7f17 103a f573 50ba f0e0 c73d
00000040: 3dbf c53b 3a05 573a 90f8 b0bd 31de be3d
00000050: 530a a53a 189e 123d 64e2 5fbb b79a 043c
00000060: 00c1 1f3d 5554 21bb c6a2 06bd 81e5 12bd
00000070: c2fc 653c 6357 36bc a351 343b c48e 943d
00000080: b43b 9e3c 0a4b a33b c5a1 1e3b e480 ad3b
00000090: b6dd 9b3b 2131 1fbc a305 0a3c c017 4e3d
000000a0: faee 10ba 1831 45bc e69d c03a 4a3b af3c
000000b0: 087a 933d e6f8 473b b5aa 40bc 8c91 593b
000000c0: 0024 823d b2e8 173c ed66 28ba 80b6 fc3b
000000d0: f249 b839 4c54 103d 895f 6e3c 4a9c f6bb
000000e0: f8fa 363d 7de4 c83b 4977 9dbc 0e3f 653c
000000f0: 8e87 903c 96ee ab3e 1016 5dbd a569 243b
00000100: 0125 33bb e20d 4d3b 1c33 583b 4dee 353b
00000110: 36a0 86bc b40f 323b b887 833c 1bbb f8ba
00000120: c0a3 4d3b 3db0 00bd 525c d03b 5558 fbba
00000130: 5353 1fba a3da 083c a533 243c 5879 9c3c
00000140: 29ec b3bb 509d 0c3d 1852 403c 14d5 803c
00000150: ffb1 223a 65bf 153d c0cd 8e3d d7e0 87bd
00000160: 3d94 6a3c 6b3a 3e3b d7d9 1f3d 2990 d53b
00000170: de28 423c 75fd 73bd fb68 643b fa4a ce3b
00000180: abbc 8d39 7dfd 0f3a 40c6 26bb 34fa 2d3d
00000190: fd97 86bb 8ed8 613b c839 16ba 805a e1b9
000001a0: 71d8 8a3b 3b1b 8d3c 43bd ae3c b048 923c
000001b0: 9dbb cabb 49a2 023c 7dbd 7b3c a269 413c
000001c0: 368a 833c c350 cf3c fa36 723c 6a91 3abd
000001d0: 04e9 a2b9 e294 95bb ce1b 0c3d 6ae1 1abb
000001e0: e17d 813d 5913 db3c 7271 a73c d798 0e3c
000001f0: c1a1 3839 3d6c a03c e0ea 073c b766 f53c
