services/torch-model-svc/artifacts/models/nn_regressor.pth (torch, 145217 bytes, 7 tensors)

input_layer.weight f4 [128, 18]
00000000: 0a53 b4bd f0ab 5bbe 02b2 a43d 78bd 81bd
00000010: a19d 40be 3555 563e 9232 34be 067f 4bbe
00000020: 3c21 2abd 10de 4ebc be30 983d 39f6 2e3e
00000030: 6ede 28be 608e 96bd a4fd 413d b071 89bc
00000040: 4bcb 6dbe 4be4 1dbe b5c1 c3bb 609a 223e
00000050: 616e a3bf 3323 083f a8d5 103e c04a a33f
00000060: 0c7b 84be b861 9e3e b5bf f23e dabf 323f
00000070: a6dc 813f ede9 19bf a3e5 2bbd 736c c93e
00000080: 61ff 8f3e 70f0 163f 9a4e a3bf 068c 95bf
00000090: 6e89 4a3d c452 afbf 93b3 9b3e d86b fe3c
000000a0: 2543 363d cd51 d4bd df9a 953a 008a 48bd
000000b0: 00bb 24bc 0034 d03d 257b cc3d 589d 8e3d
000000c0: 8fec bdbe 2d81 d63d ead8 6cbd dfdb fbbe
000000d0: 5ac6 3ec0 5205 89be 25c7 8dbc e77a ba3e
000000e0: 94ca a1be 893f 06bf 0b7f 843e e903 c0be
000000f0: 684d cc3e a284 9b3e e1f1 183f 5acb 26be
00000100: e966 b7be 7835 bbbe 5bf6 ddbd 919a 62be
00000110: 7281 c83e f404 8bbe 7bf0 be3e 6e1e 843e
00000120: 6332 dabd cf33 4b3e de32 a3bd 5fe4 823e
00000130: 9eb1 603d 43f9 c2be 1286 573d 74f3 653d
00000140: 0c2e 2b3d 3440 883e 5fb3 c43d 34e0 2ebe
00000150: 122d cd3d 5066 f9be 4d32 183f 0dbb f63e
00000160: de0c 80bd 8197 00bd 97ef 4a3c 3a33 80bf
00000170: 8dbf bf3f 7402 a7be f46a 2cbd 836a 1cbf
00000180: 26e7 2ebd f877 7bbe 2744 ddbe 4136 8fbe
00000190: b1ce 23bf d3a1 933f aad9 f3bd a52a 04bf
000001a0: 6cf1 97be 0925 57bd bf7c d1bf 9c82 123f
000001b0: 5e03 f83d 8931 863f 93aa 81be f187 873c
000001c0: 99d3 24be 7b3c ae3d d226 da3d b62b 103e
000001d0: 0841 1b3c 0cf2 7fbe 7404 6f3d 47d9 583e
000001e0: e36e 33bd 45ca d73d b485 20be 7506 2e3e
000001f0: 609a 3840 e4af d7bc 676e 053d 5a3d 98bf
00000200: ea5f 093f 4f9c d1bc 9b58 e0bd d093 9a3d
00000210: 24d8 033e 8a8f fbbd 6eef 96be bb0b 33be
00000220: 59d0 ec3d c1b8 a53e 4aec 5f3d 24bd b13e
00000230: eed1 133e 4f2a d4be 65e8 3fc0 f6fa 73bd
00000240: 74ee d23d aea2 c9bf a07c 2b3f d662 633e
00000250: 6247 3dbd 44f3 dbbd f766 f0bd 2221 09be
00000260: 39dc dcbe ea41 983d 446f ca3d cadc a43e
00000270: 161f abbe 5ade 32bd b338 f93b 8267 a3be
00000280: 53b7 34c0 f99c e0be ed75 ad3d 7c47 27bf
00000290: 6883 5f3e 9c3b dc3d 3c1b 65be 66c2 0bbe
000002a0: c8bc 06be eef9 4a3e a134 60be 6938 4ebe
000002b0: 3417 cd3d fa76 583e 7550 7dbd 245a 073e
000002c0: 3de9 04bc cb80 4ebd 52e6 27c0 159a b43e
000002d0: 2888 603c e72e 963f 848d 463d 23ed 18be
000002e0: cadb 19bc 5ca9 35bd c21d 873e ccc2 213d
000002f0: 58f6 a1bd e2d4 8dbe e034 f43c ddd8 ae3e
00000300: cfa1 883e 65a6 a93d b7f4 a43d 4877 ac3e
00000310: c66f 3d40 b9bd b43e 5f8e 59bd 679b 863e
00000320: cea7 42be e9aa 32be a0e3 8c3c c038 d33e
00000330: 8023 5abe 4e23 d13d 512f f2bb 6af6 f83d
00000340: 57a5 8a3e 98d8 79bd 155b 2b3e 9a9f 64bd
00000350: 6703 a3be d539 94be 8110 853e a574 8c3a
00000360: 4762 d5bd 36fd 3bbe 3ea4 6b3f 489c e2be
00000370: 44dd 223b b81f 0cbf 472c 523d a35e bc3d
00000380: 4f60 d2bd e7d8 d9bd 880c ebbe 06c4 1a3f
00000390: 3ce6 7c3d ae16 753e 4728 e03e 9268 d8be
000003a0: 29ed 9b3d a303 4f3d 5096 14bc e2b0 b13e
000003b0: 22f9 20bf 4361 473f 4573 2e3e ff8d 753e
000003c0: 9b10 803d 840f b7bd 7c02 df3e d8a9 733e
000003d0: 68cb 823e 9a30 d9be f4b2 c1be ef38 9cbe
000003e0: cd15 863d 8703 403f cf5c 3ebf f686 6cbe
000003f0: 3a0f 5fbe e89c c9bd 2ef6 893d 322e 5abe
-0.08804901 -0.21452308 0.08041765 -0.063349664 -0.1881013 0.20930941 -0.17597416 -0.19872674
-0.0415356 -0.012626186 0.07431172 0.17086114 -0.164911 -0.073513746 0.04736103 -0.016777843
-0.23222081 -0.15419118 -0.0059740194 0.15879202 -1.276806 0.5317871 0.14144003 1.2757187
-0.25875127 0.30933928 0.47411886 0.6982399 1.0145462 -0.6012257 -0.041967046 0.39340553
0.28124526 0.5896063 -1.2758362 -1.1683357 0.04944747 -1.3697133 0.30410442 0.031057283
0.044497628 -0.10367165 0.0011413953 -0.048959732 -0.01005435 0.10166168 0.099844255 0.06963605
-0.37094542 0.10473857 -0.057824053 -0.49191186 -2.9808564 -0.26761872 -0.017306874 0.36421892
-0.31599867 -0.52440697 0.25878176 -0.37502983 0.39902806 0.30374628 0.5974408 -0.1628851
-0.35820702 -0.3656423 -0.10838004 -0.22129275 0.3916126 -0.27152216 0.37292847 0.25804466
-0.10654142 0.19843982 -0.079686865 0.25564858 0.05485689 -0.38080797 0.052618094 0.056140378
0.04179196 0.26611483 0.09604525 -0.17077714 0.10018362 -0.4871087 0.5945175 0.48189583
-0.06252454 -0.031394485 0.012386224 -1.0015633 1.4980332 -0.3261906 -0.042094186 -0.61100024
-0.04270091 -0.24557483 -0.4321606 -0.2797108 -0.6398726 1.153376 -0.119067505 -0.5162757
-0.29676378 -0.052525554 -1.6366194 0.57230544 0.12110017 1.0483867 -0.2532545 0.016544314
-0.16096343 0.085076295 0.10651936 0.14079174 0.009475954 -0.24994677 0.058353856 0.21176635
-0.04380692 0.10536627 -0.15676004 0.1699465 2.8844223 -0.026328988 0.03257599 -1.1893723
0.5366198 -0.025587229 -0.109544 0.07547724 0.1287542 -0.12283237 -0.29479545 -0.17484944
0.11563177 0.3236752 0.054668702 0.34714615 0.1443555 -0.4143853 -2.9985592 -0.059565507
0.102993876 -1.5752771 0.6698704 0.22205672 -0.046210654 -0.107397586 -0.11738389 -0.13391545
-0.43136767 0.07434447 0.098845035 0.321997 -0.33422154 -0.043669082 0.007605636 -0.31914908
-2.8236892 -0.4386976 0.08469758 -0.6534345 0.21827471 0.10753557 -0.2237367 -0.13648376
-0.13157952 0.19821903 -0.21895076 -0.20138706 0.10014191 0.21139136 -0.061844308 0.1321798
-0.008112249 -0.050415795 -2.6234326 0.35273805 0.013704337 1.1733063 0.048474804 -0.1493421
-0.009390781 -0.044350967 0.2638989 0.039492413 -0.079083145 -0.2770148 0.029810369 0.3414983
0.2668595 0.0828369 0.08054488 0.33684754 2.959947 0.35300997 -0.05311429 0.26290438
-0.19009325 -0.1744801 0.017198384 0.41254234 -0.21302605 0.10211812 -0.0073908945 0.12156375
0.2707927 -0.060997576 0.16733964 -0.05581627 -0.31838533 -0.28950372 0.25989154 0.0010715915
-0.104191355 -0.18358311 0.9204749 -0.44259858 0.0024851123 -0.547359 0.051311757 0.09197738
-0.10272276 -0.10637074 -0.45907998 0.6045536 0.061743006 0.23934433 0.4378073 -0.4226728
0.07613594 0.050540578 -0.00906904 0.34705263 -0.62880147 0.77882785 0.1703616 0.23979948
0.06253167 -0.08938506 0.43556583 0.23795259 0.25545812 -0.42419893 -0.37831843 -0.30512187
0.06547127 0.7500538 -0.74360365 -0.23098359 -0.21783152 -0.098443806 0.06736408 -0.21306685

input_layer.bias f4 [128]
00000000: 477c 413e 8bbc ac3e 8a71 3c3f 8911 933e
00000010: 0c29 cb3e d59e 55be 0b54 5bbf 5db6 613f
00000020: 04da 503f b51e 0d3f d58c 60bf 1369 c6be
00000030: 9bc8 d9be e590 743f 0059 7ebc ac22 7b3d
00000040: 7da9 8abf 9faa 4fbe 8ae9 59bf 2836 353f
00000050: b64a 4abf 1f2d 48bf d89d f73d ff30 5a3c
00000060: 8edf 40bf 7dfe 943f 9cb0 3e3e 94c9 c6bd
00000070: 7b2b 463f 3120 b23d eeb0 ccbd 917a 0cbf
00000080: 5dfa 4fbf e379 393d f7d6 3f3f 2b82 ee3d
00000090: 8c5d 8abe ce0c 193f 98dd 76bf 7bcf 5d3f
000000a0: 8a38 6d3e 008a 503f d125 763f 9a25 75bf
000000b0: 8f91 8abf 478d d5be 3b88 433e 2687 823f
000000c0: d0d8 8dbf b2ec 74bf f8b9 3bbe 1c07 2dbd
000000d0: f38e 09be 8322 21bf 61c0 6fbf 405e 0b3f
000000e0: ac8e 46be 20e9 6bbf 26e3 cc3e 4baf afbe
000000f0: 7462 4ebd 64db 2cbd 9ac3 65bf d725 eabd
00000100: dca1 40be eab9 19bd 0ce1 7f3d b6b7 dcbc
00000110: 9601 87bf e505 623f 6cad 23bf 0abb 5e3f
00000120: 8f03 8fbf edce 113f b828 7ebe a120 693e
00000130: 647f c63e 532a 2e3f d652 2cbf 9cdf 50bf
00000140: a8fc 8bbc 7475 5ebe 776a 22bf 8bb2 00bf
00000150: c653 acbd 3377 5dbf be1f 46bf eda7 3b3d
00000160: 8400 a03f d135 fb3e 6893 dfbc f989 4ebf
00000170: f93d 043f 71db 703f cad0 503f a409 d1be
00000180: e47b af3d 89ca a33e c462 393d e619 153f
00000190: 0e64 02be 3f80 82bd b728 653f 9a4a 6dbe
000001a0: 735f e63e 30e1 243c 3da3 42be 318d 413f
000001b0: 64d8 4c3d 0cf7 d9be 3a7c 8c3f 10d3 243e
000001c0: e3a9 5cbf 763e 68be 2f56 773f 04b4 a7bd
000001d0: 886b fe3d aadb 463e ef4f 8bbe 0b73 d2bb
000001e0: a9a1 cb3d f60a 2dbe 4bee 413f f4a8 88bf
000001f0: 0cbb 803f f5f4 b43e a14d 443f 8a29 cb3e
0.18895064 0.33737597 0.73610747 0.28724316 0.39679754 -0.20861371 -0.85675114 0.8816889
0.81582665 0.5512498 -0.8771489 -0.3875204 -0.42535862 0.9553359 -0.015524149 0.061312363
-1.0832974 -0.2027993 -0.8512198 0.7078576 -0.7902025 -0.7819385 0.12090653 0.013317346
-0.7534112 1.1640164 0.18622059 -0.09706417 0.77410096 0.08697546 -0.09994684 -0.5487452
-0.812414 0.045282256 0.74937385 0.11645921 -0.27024496 0.59785163 -0.96431875 0.86644715
0.23166099 0.8146057 0.96151453 -0.957605 -1.0825671 -0.4170935 0.19094937 1.0197494
-1.1081791 -0.9567367 -0.1833266 -0.04224311 -0.13433437 -0.62943286 -0.9365292 0.5444069
-0.19390363 -0.92152596 0.4001705 -0.34313425 -0.05038686 -0.042201415 -0.8975159 -0.114329986
-0.18811744 -0.037530817 0.06247048 -0.026943069 -1.0547359 0.88290244 -0.63936496 0.8700415
-1.1172961 0.5695637 -0.2482022 0.22766353 0.38769066 0.6803333 -0.673139 -0.815912
-0.01708825 -0.21724492 -0.634437 -0.50272435 -0.08414416 -0.8651001 -0.77392185 0.045814443
1.2500157 0.49064496 -0.027291968 -0.8067928 0.5165706 0.9408484 0.81568587 -0.40827668
0.08568552 0.3199046 0.045260206 0.5824264 -0.1273348 -0.06372117 0.8951525 -0.2317299
0.44994697 0.0100634545 -0.19007583 0.75606066 0.050011054 -0.42571294 1.0975411 0.16096139
-0.86196727 -0.22680077 0.9661588 -0.08188632 0.12422854 0.19419733 -0.27209422 -0.0064224056
0.099429436 -0.16898713 0.7575423 -1.067656 1.0057082 0.35343137 0.7668095 0.3968013

hidden_layer_1.weight f4 [128, 128]
00000000: 9c40 b2bc a452 08be 12ea 91bd fe30 8dbd
00000010: 9a69 72bc 8ee1 d5bc 95cc cbbc 109e 5d3d
00000020: 3b9c 143d 3357 ec3b 2248 423d 5f38 073b
00000030: 34e0 963c 7a28 48bd a0e1 04bb 8030 b13a
00000040: f35e 3d3d 10ac 12bc 07f0 993d 940c 673d
00000050: efd1 fa3c 5a81 a6bd b32d 793d c8b5 893d
00000060: 78ba a3bd 3461 1bbd b6a8 2d3d cd4f 803d
00000070: d708 3bbd 4799 d5bc c005 9f3b e747 2d3d
00000080: 8aca 6e3d f16c 33bd 5f52 2a3c ee7e bfbd
00000090: 2ba6 613d 72f7 b6bb 168b 923d e378 e73b
000000a0: d866 06bd a71d 3dbd 5069 243d 7b5d 46bd
000000b0: 199f 88bc 6279 4cbd c9ad 4fbd 7b37 193b
000000c0: b495 543d 2fb3 033d cc0c b13c 8c3f acbc
000000d0: 5865 af3c b4a3 fd3a 848c b8bd cb92 10bd
000000e0: 3a04 97bd 2cb7 e239 2b9f 493c 0a58 4d3d
000000f0: c374 9f3d 04b5 d7bc 868b fbbc a0b1 07bb
00000100: 04e2 683b 4c3e 5abc ce2d 99bd 4a1b a0bd
00000110: 9789 f63c 7d60 adbd 9002 c93c e169 3abd
00000120: cb88 963d db69 383d fe6b c0bd bc61 b53c
00000130: 5648 3bbd 0165 a2bd 5054 963d fff4 063d
00000140: b66a 033d 82f7 82bd 9ede 893c 9fd9 a9bc
00000150: 8ae2 753d 8313 afbd a489 bebc b068 713c
00000160: 731e c23d ea39 a6b9 cc10 87bd 56fb 92bd
00000170: 2c67 613d 4302 98bd b37b 153b f3a7 813d
00000180: c107 da3b 2a67 9cbc bc43 afbc 2de7 1abd
00000190: 4669 c8bd 4114 46bc 50be 8a3d e719 9ebd
000001a0: a9f0 fc3c ece6 9e3c abc1 31bd 5c66 2c3d
000001b0: 986e e03c 2846 9ebc 7b8e e2bc 580d 3b3c
000001c0: a606 043d eb50 aa3d d1a4 b4bd 3d9c 8a3d
000001d0: 3714 b33c 29f4 80bd 098b a0bd d87b 50bd
000001e0: c661 793d a9c7 78bd ee5b 243d ce9e ab3c
000001f0: 88a6 27bd 19e9 28bd 5e6d 34bd ef98 c7bb
00000200: 2052 95bc 9343 4bbd 79c2 dd3c b134 00bd
00000210: 0ae1 7ebd 3fb2 923c d0dc a6bb f63e a9bd
00000220: dae3 7cbc b880 df3c 7bad b1bd 8731 7b3d
00000230: 5f34 7b3d a9fb 313d 91c1 883d 2a84 533d
00000240: 9362 8ebd a3ea 14bc 69c5 9d3d 65a4 48bd
00000250: dde5 913d 41f1 99bd abe6 21bd 177a b53a
00000260: 560c e8bc d1a6 8d3d 78d1 65bd 7659 91bd
00000270: 15eb 93bd 5c4e 54bd cc16 dcbc 14e4 2e3d
00000280: 513a 403c e23e cfbc 6ad0 ad3c fb9a 7cbd
00000290: 4cdf 263c 09a4 66bd 9546 46bd 44d7 163c
000002a0: 28da 4fbd 2653 8cbd ec9e b1bd 2196 bcbd
000002b0: 65d2 89bc 8e8f a93d dcd2 5b3d b38b 763d
000002c0: 8951 f1bc baa5 2aba 9679 4f3d a5de b4bd
000002d0: 4932 9bbd 1f8e 75bd 6779 813d ce56 a2bd
000002e0: 7c4c adbd f746 583d a7c4 65bc 85c3 9b3d
000002f0: bde9 8dbd 669f 293d 7b5d 52bd 0bd1 a4bd
00000300: 77ab aabc 62cb 96bc 6894 d33c 1186 22bd
00000310: 807c a43a 5230 013d 4923 a6bd 39f8 873d
00000320: 71b0 92bd 2a03 7abd 5e0b 6a3d d64f 493d
00000330: 5ba7 09bd e7d8 c83c bc3e 99bd c251 2bbd
00000340: 508c aebd 8eab 713d f4a1 98bd b8e9 a73b
00000350: 2285 6f3d e871 073c e4b2 533d 74e7 93bd
00000360: fa4c acbd 1d54 b63c 7069 dd3c 95dd 193d
00000370: a29a 763d 88b7 b9bd f733 a83d 1041 553d
00000380: 9604 323d 46b5 41bc fc92 e9bc e239 4e3d
00000390: f023 81bd 07d3 a63b 7807 963c 63b0 9f3c
000003a0: 1de9 64bc 4f47 8f3d 3dac a6bd f7d8 823c
000003b0: 9b47 ab3d c0f0 aa3d 4916 24bd 57b9 aebd
000003c0: bc26 ca3c 7043 01bd fc79 8fbc a8fe c8bc
000003d0: 9605 593c 7286 a2bc 500f 9f3d c776 5cbd
000003e0: 58ae 443c 0372 8a3d d20c 0fbd 4f23 7f3c
000003f0: 5aca acbc 7b6b 9cbd e9b0 573d a675 59bd
-0.021759324 -0.13312775 -0.071247235 -0.0689411 -0.014795685 -0.02610853 -0.024877826 0.05410582
0.036281805 0.0072125434 0.047432072 0.0020632965 0.018417455 -0.048866726 -0.0020276085 0.0013518482
0.04623313 -0.008952156 0.07516485 0.05640848 0.030617682 -0.081301406 0.060834598 0.06724125
-0.079945505 -0.037934497 0.042397223 0.06265221 -0.045662727 -0.026074065 0.0048529804 0.0423049
0.058298625 -0.043805066 0.010395615 -0.09350382 0.05509011 -0.005583697 0.07155435 0.0070639714
-0.032812923 -0.046170857 0.040139496 -0.048428994 -0.016677426 -0.049920447 -0.050702844 0.0023379016
0.05190058 0.032153305 0.021612547 -0.021026395 0.02141063 0.0019351155 -0.09011176 -0.035296243
-0.07373853 0.00043242553 0.012306015 0.05013279 0.077859424 -0.026331432 -0.030706178 -0.0020705238
0.0035535106 -0.013320517 -0.0747944 -0.07817705 0.030094905 -0.08465669 0.024537355 -0.04551113
0.0735031 0.045022827 -0.09395598 0.02214133 -0.04572328 -0.07929421 0.073403 0.03294849
0.03208419 -0.063948646 0.016829785 -0.020733653 0.060030498 -0.085486434 -0.023258992 0.014734432
0.09478464 -0.00031705137 -0.065950006 -0.07176845 0.055030033 -0.074223064 0.0022809326 0.06330862
0.0066537564 -0.019092161 -0.021394603 -0.037818123 -0.09785704 -0.01208979 0.067745805 -0.07719784
0.030876474 0.019397222 -0.043397587 0.042089805 0.027396485 -0.019320562 -0.02765583 0.011416756
0.032232903 0.08316215 -0.08820499 0.06768081 0.021860225 -0.0629657 -0.07839019 -0.050899357
0.06088426 -0.060737286 0.040126733 0.020949747 -0.0409303 -0.041237924 -0.044049613 -0.006091229
-0.018227637 -0.04962499 0.02707027 -0.03130025 -0.062226333 0.01790726 -0.005092241 -0.08263962
-0.015435183 0.027283058 -0.08675667 0.06132653 0.06132924 0.043452892 0.06677545 0.051639713
-0.06952395 -0.009089145 0.077036686 -0.048984904 0.07123921 -0.07516719 -0.039526623 0.001384559
-0.028326195 0.06916583 -0.056107968 -0.070971414 -0.07222573 -0.05183254 -0.02686634 0.04269798
0.011732654 -0.02529854 0.021217544 -0.06167124 0.010185074 -0.05630878 -0.048407156 0.009206597
-0.05074516 -0.06851797 -0.0867289 -0.09208322 -0.016823957 0.08279334 0.053667888 0.06019182
-0.029457824 -0.00065096805 0.050653063 -0.088315286 -0.075779505 -0.05994999 0.06321984 -0.07926713
-0.08461854 0.052802052 -0.014023936 0.07605652 -0.06929348 0.04141178 -0.05135868 -0.08047684
-0.020833714 -0.018407527 0.025827602 -0.039678637 0.0012549311 0.031540222 -0.08112199 0.066391416
-0.0716256 -0.061038174 0.057139747 0.049148403 -0.03360687 0.02451749 -0.07482669 -0.041826017
-0.08522856 0.059001498 -0.07452765 0.005124297 0.058476575 0.008266903 0.051684275 -0.072218806
-0.084131196 0.022256905 0.027027816 0.037564833 0.060206063 -0.09068209 0.082130365 0.052064
0.043461405 -0.011823004 -0.02851247 0.05034817 -0.06305683 0.0050910744 0.018314108 0.019493287
-0.013971594 0.06996023 -0.081383206 0.015972598 0.08363267 0.08346701 -0.040060315 -0.085314445
0.024676673 -0.031558454 -0.017514221 -0.024535492 0.013245961 -0.0198395 0.077665925 -0.053824212
0.012004457 0.06760027 -0.034924336 0.015572383 -0.021092582 -0.07637688 0.05265895 -0.053090714

hidden_layer_1.bias f4 [128]
00000000: ca37 2d3d 5ce2 74bd 140a 393d b038 9fbd
00000010: 3fce 3d3d ca2c 1abd 2ccd a13d bbac b53d
00000020: 4e8e c83e cb81 1e3f 6168 413c 67b3 d93c
00000030: f4ab 093f 1080 2cbc ae80 09bc d674 913f
00000040: d751 8b3d 13ed b63d 3c8d 98bd 64a4 843d
00000050: 3c72 8ebd ac8b 03bd b013 b83e 2972 0bbf
00000060: b119 38bd 89ad 49bd 3eb5 7b3d bbee aebd
00000070: 6743 d0bc 4677 a4bd 603b a33c d82c fd3b
00000080: ada2 653d 0173 c9bc 15d9 4ebd 94ae 05bf
00000090: b8bb adbd 3b16 90bc 0803 9d3e 8bbf 6dbd
000000a0: 6d2a 563d 1712 84bd 9bec 7f3f 6dc4 553d
000000b0: fedf 5dbd 2279 9d3c 50c4 d53c accc 71be
000000c0: 53e3 d03d 112d 2bbc 0c3e 29bd b5f7 d6bb
000000d0: 0e9e 933e e1a9 a53d 7cf5 543c 0946 473f
000000e0: 289b c93e 2833 553c d5dc 5bbe 1206 cabd
000000f0: ee17 23bf 12b0 84bd dab4 b0bd 0c48 a0be
00000100: 1c92 2e3c 744f 4ebd 24ae 67bc 4b17 a6bd
00000110: b69a 9d3f af03 6dbd c8bb f33c 1279 b2bc
00000120: 8b80 623f cc87 963e c055 a0bd 7b5f a4bc
00000130: 77fe 5cbd e2e5 13bd e780 843f e55f 243f
00000140: dd3e 68bd 271c 843d 27c9 9e3d b843 afbd
00000150: 417e cb3e 1048 033a 342d ec3c d3f5 45bd
00000160: b24c 553f 929f 693d c10b 21bd ce34 4c3d
00000170: 3c15 953d 450a b8bd 6d34 2f3d 2ecf 9a3d
00000180: 6c6f 9ebc 01df 00be 64f9 a6bc 275d 413d
00000190: dbbf 513d b65f 78bd 0d50 2fbd e76a 463d
000001a0: 5151 58bd 8cb4 8e3d 15da b7bd 6c9f ea3d
000001b0: c859 4b3d 91c7 83bd b3b0 863e 3669 da3e
000001c0: ab46 88bd 7f34 d83e 3ef4 c53d cb49 b23e
000001d0: 295f 3abd 2012 b7bd 9df7 013f 5acb 873d
000001e0: 4827 7d3c 9d69 3dbc 1c94 43bd 1c04 c9bd
000001f0: 98c7 05bd 83f0 ff3d 1132 ba3d 731c b43c
0.042289533 -0.059786186 0.045175627 -0.07774484 0.04633927 -0.03764037 0.079004616 0.08870836
0.3917107 0.619168 0.011804671 0.026574804 0.53778005 -0.010528579 -0.008392496 1.136378
0.06802719 0.08931937 -0.07448813 0.064766675 -0.06955382 -0.032115623 0.3595252 -0.5447107
-0.044946376 -0.04923776 0.061452143 -0.08541628 -0.025422765 -0.08030562 0.019925773 0.007726293
0.056063343 -0.024590971 -0.050499994 -0.5221951 -0.0848307 -0.017588725 0.30666375 -0.058043998
0.052286554 -0.06448763 0.99970406 0.05218928 -0.054168694 0.0192228 0.026094586 -0.23613232
0.10199609 -0.010447756 -0.041318938 -0.0065602907 0.28831524 0.080890425 0.012997981 0.7784124
0.39376187 0.013012685 -0.2147096 -0.09864439 -0.6370839 -0.06478895 -0.08628245 -0.31304967
0.010654952 -0.05036874 -0.014140639 -0.081099115 1.2312839 -0.05786484 0.029752627 -0.021786246
0.8847739 0.2940048 -0.078288555 -0.02006506 -0.053953614 -0.036107905 1.0351838 0.64208823
-0.056700576 0.06450682 0.077532105 -0.08557838 0.39744762 0.00050079916 0.028830148 -0.04833014
0.8332015 0.057036944 -0.03931785 0.049855046 0.07279441 -0.08986334 0.042774606 0.07559048
-0.01934024 -0.12585069 -0.02038259 0.047207978 0.05120836 -0.060638152 -0.04280095 0.048441794
-0.052811924 0.0696803 -0.08977143 0.114561886 0.04964617 -0.06434549 0.26306686 0.42658395
-0.06654104 0.4222755 0.09665726 0.34821925 -0.045500908 -0.08939004 0.5076845 0.06630583
0.01545126 -0.011560825 -0.04774867 -0.09815237 -0.03266105 0.12497046 0.09091581 0.021986222

hidden_layer_2.weight f4 [128, 128]
00000000: 4dc3 81bd 985b 08bc 8ffe abbd c85b 85bd
00000010: 0583 0c3d 4e03 4f3d 203d 43bd 8515 4a3c
00000020: 91bd 4cbb 6961 eabd a491 c1bc e067 6a3b
00000030: f77b edbc e9b3 acbd 3e4d 163d 27ce 1ebe
00000040: 13b6 983d e068 5c3c 727b b0bd f700 8a3d
00000050: 20cb b3bd 6b3c 2c3d 702e 39bc b836 f23c
00000060: cddd 9e3d 2639 783d b4aa 083d eb8b a3bd
00000070: a037 bf3c fbba 25bd 637c a9bd 2066 69bc
00000080: 60db 6a3c 0c30 5a3d c9d0 9d3d 8da0 87bd
00000090: 10d1 91bd bf09 54bd 1e77 90bc 325b 3dbd
000000a0: 392e 12bb e2f4 0f3d ce3a d6bc 000a bf3c
000000b0: 532b 9c3d ba01 3fbd 67fc 87bd 4d07 58bd
000000c0: 5610 463d 0691 813d 938e 933d c18f 213d
000000d0: 40bd fa3b 0f82 a63d fc48 953d e2c9 60bd
000000e0: 54ab a6bd e651 213d 30ce 743c c578 94bd
000000f0: 5435 4e3c 765a a4bd 689e 0f3d 618a 57bd
00000100: 40e7 9abd f062 e13c 5513 84bd f162 22bd
00000110: a99b 0ebd ee18 9abd 273f b2bd 1635 383d
00000120: 403e 21bd 4291 86bd b084 9abd 90a8 0ebc
00000130: c5e9 8cbd f0ca 55bd 8465 5b3d d26b 4fbd
00000140: 14ff a3bc 70c0 f83b 3738 98bc 0812 c6bc
00000150: 176d 723b cc98 d7bc 1481 993c c9ce bf3c
00000160: 5370 273d 50e6 843c c851 ad3d 8001 3fbc
00000170: 57f1 17bd f367 4a3d 6355 0cbd 3ae3 2d3d
00000180: 3a54 a2bd ff2f 9ebd 051e c7bc eeb6 583d
00000190: 4bca 8f3d d7b2 a23d 4da4 2abd e0c7 a63b
000001a0: 4cb8 9bbd f957 a2bd e5be 5dbd 6569 993d
000001b0: 3990 b13d a85d 933c 5805 82bd a47a 633c
000001c0: 7441 74bd 67eb 8cbd 11ae 6cbd 11e2 e3bb
000001d0: 9139 a7bd 89bc a03d 9eb3 b1bd 08ca 48bc
000001e0: f8aa 22bd 441d 1fbd 600e a5bd 0aaa 83bd
000001f0: 5f40 043d 4c7c 8a3c 22ba f2bc 6328 a7bd
00000200: abc4 183d 2800 a1bd 715b b4bd 71ab 67bd
00000210: 2b8c 81bd e835 b23c 4061 97ba 85fe 87bd
00000220: 4a88 1fbe f06a dbbc f41a d2bc 3ed1 30bd
00000230: c0e4 81bd b0ab b33b 8977 a5bc cd95 0ebe
00000240: 3e9f c1bc cd81 7d3d 066a 39bd cc41 053d
00000250: c667 08ba 25bb 68bd b23a b63b 005f 4dbd
00000260: e4cd c7bd 88bf 73bc f4ff 90bd 4406 56bd
00000270: bce4 4f3d 15e3 13bd c024 c63c b1e4 08bd
00000280: 58a1 53bd c099 9d3d 208c de3b 4b2a 763d
00000290: f04d a7bc 74f6 cdbc 2add 80be e006 49bb
000002a0: 8aa5 6d3d 1003 3dbc a175 edbd 1029 fa3b
000002b0: e383 913d f894 5dbc 6d31 3abd 050c a7bc
000002c0: e755 bdbc 8832 28bb 235f e7bd e086 62bd
000002d0: 1806 173d 080b 7abd 0e08 653d c247 043c
000002e0: 790e 40be 7a73 423d c4ce 93bc 4ff6 37bd
000002f0: b1fd 7d3d 8674 4fbd 9658 42bd 8f55 af3d
00000300: 3a23 8f3d 2686 7e3d 9de2 b4bc 6306 51bd
00000310: 7971 f4bd 06eb 173d 80be c13b 2d74 433c
00000320: 746c 09be 419d 92bd 1227 02bd 3cbe 02bd
00000330: 4c14 97bd 75f3 c8bc 5856 7dbc e2b4 293c
00000340: 6897 5cbc 61ab a33d 7d2d a93c b0c0 bebc
00000350: d01b 5abd b496 2abd d4b1 6fbd 1f6f 70bc
00000360: 16a7 d4bd ae4c a0bd 0e86 2b3d 0095 4ebb
00000370: 1b2b 373d a31a 51bd b6ba 8ebd 6bc7 9cbd
00000380: b236 a2bd f1f9 9ebd d8bf 943d b436 83bc
00000390: 28a2 b43c 1a19 b53c 4202 66bd 6ac8 1e3d
000003a0: 4c70 99bd b1ea a53d 022c e23c 59a9 543d
000003b0: c2ba 60bd a76f a43d 249c a4bd 2c44 91bb
000003c0: 0892 e03b 4389 b0bd 1b03 1f3d 8926 80bd
000003d0: 82e8 0fbd 2a14 a2bd cb3b 27be 34be 9b3c
000003e0: 7443 1a3c 6d40 b3bc 9b7f a0bd 77a5 1a3b
000003f0: 3922 f43c fde7 7d3d 2c16 aa3c e66c bbbc
-0.06336079 -0.008322619 -0.083981626 -0.065116465 0.034304637 0.05054026 -0.047665715 0.012334232
-0.003124092 -0.11444361 -0.023629017 0.003576748 -0.028989775 -0.08432753 0.036694758 -0.15508328
0.07456603 0.0134527385 -0.08617295 0.06738465 -0.087789774 0.042049807 -0.0113025755 0.029567108
0.07757149 0.060601376 0.03336592 -0.079856716 0.023341954 -0.04046152 -0.08275678 -0.01424554
0.01433453 0.053268477 0.07705838 -0.066224195 -0.07119954 -0.051767107 -0.017634925 -0.04622955
-0.0022305383 0.035145648 -0.026151087 0.023320198 0.07625451 -0.046632506 -0.06639939 -0.052741338
0.048355423 0.06326489 0.07204928 0.039443735 0.007651955 0.081302755 0.07289311 -0.05488003
-0.08138147 0.039384745 0.014941737 -0.072495975 0.012585957 -0.080250666 0.035063177 -0.052622203
-0.07563639 0.027512997 -0.06449 -0.03964514 -0.034816418 -0.07524286 -0.087034516 0.0449725
-0.039366007 -0.065706745 -0.075448394 -0.008707181 -0.068805255 -0.05219549 0.05356361 -0.050639935
-0.020019092 0.0075912997 -0.018581493 -0.02417852 0.0036991292 -0.026317976 0.018738307 0.023414033
0.040878605 0.016223103 0.08462864 -0.0116580725 -0.037095394 0.04941554 -0.03426112 0.04245303
-0.07926221 -0.07723998 -0.024306307 0.05290883 0.07021006 0.07944267 -0.041660596 0.005089745
-0.07603511 -0.07926936 -0.05413713 0.074908055 0.086700864 0.017988995 -0.063486755 0.01388422
-0.059632733 -0.06880837 -0.05778319 -0.0069544395 -0.08165277 0.0784846 -0.086768374 -0.012255199
-0.03971383 -0.03884627 -0.080593824 -0.06428917 0.03228795 0.016904972 -0.02962977 -0.08162
0.037296932 -0.07861358 -0.088065036 -0.056559984 -0.06325563 0.02175422 -0.0011549369 -0.066403426
-0.15579334 -0.02678439 -0.025647618 -0.0431683 -0.06342459 0.005483113 -0.0201986 -0.13924332
-0.023635503 0.061891366 -0.045267127 0.032533452 -0.0005203452 -0.0568191 0.0055611962 -0.050139427
-0.097560674 -0.014877208 -0.07080069 -0.05225207 0.050755247 -0.036105234 0.024187446 -0.033421222
-0.05166754 0.07695341 0.0067916065 0.060098927 -0.020422906 -0.025141932 -0.25168735 -0.0030674264
0.0580192 -0.011536375 -0.115947016 0.0076342896 0.071052335 -0.013524286 -0.045457292 -0.020391474
-0.02311225 -0.0025664885 -0.11297443 -0.055304408 0.036871046 -0.061045676 0.055915885 0.008073749
-0.18755521 0.04747341 -0.01804293 -0.044912633 0.062009517 -0.050648235 -0.047447763 0.08561241
0.06989141 0.062139653 -0.022080714 -0.05103148 -0.11935706 0.03708937 0.005912602 0.011929554
-0.13420278 -0.071589 -0.03177554 -0.031919703 -0.07376918 -0.024530152 -0.0154624805 0.010358067
-0.013463832 0.07991672 0.020651573 -0.02328524 -0.05324918 -0.041647628 -0.0585192 -0.014674931
-0.103834316 -0.078271255 0.04187589 -0.0031521916 0.044718843 -0.051050793 -0.06969206 -0.076552235
-0.079205886 -0.07762516 0.07263154 -0.016017295 0.022049978 0.022106696 -0.056154497 0.03876535
-0.07492122 0.081014045 0.027608875 0.051919315 -0.054865606 0.080291085 -0.08037594 -0.0044331755
0.006853346 -0.086199306 0.03882132 -0.0625735 -0.035133846 -0.07914002 -0.16331403 0.019011594
0.009415496 -0.021881307 -0.07836839 0.002359716 0.029801475 0.06198882 0.020762525 -0.022879075

hidden_layer_2.bias f4 [128]
00000000: a258 a9bc 0c6f ed3e 559f bcbd edc4 0dbf
00000010: 7a95 e1bd 892e 82bd fd23 13be ba2f 83bc
00000020: 2727 7e3d 17b6 01bd 3f00 f23d e1cc 48be
00000030: f329 b5bd 29ba 8bbc 7d56 05bd 41f5 103e
00000040: 9b4f 153d c556 4bbd 190d 5cbd 2732 edbd
00000050: ccb6 3ebe 15cb febe 3d4f 11be 7c8d 8d3c
00000060: 001c 863e b09a a7bd 991d d4bd 1c9a cabd
00000070: 2fa3 6ebe 93e3 833e ce50 94bd e0b7 af3e
00000080: 4f9c cf3c 04b0 f9be d804 843d b242 4a3d
00000090: dae5 1ebf e779 cfbd 768c cc3e 370d 89bc
000000a0: 5878 94bb 7c80 efbd 28d3 a73e 0919 813d
000000b0: 37e7 d3be a636 b1be c97b 30be b6b4 d83e
000000c0: ce56 82be 3f64 11bf de8d f73d 80eb e9bd
000000d0: 2030 c03d cb4f 943d d670 e13d 8f3e 85bd
000000e0: f907 033e fd84 c03c bd8b a33e 2bef 01bc
000000f0: 377c 30bd a384 54be cd53 0d3e c15c 263e
00000100: dfae 8ebe 8bfa 293d 005d debd 6961 de3d
00000110: acec 4ebe 2cd7 2b3d 2988 febc 54ea 173d
00000120: 73fd b73e 398e 98be f286 0b3e ddc9 213d
00000130: 789b 1c3d 8e25 543e 1df1 6a3d a94a d83e
00000140: b3b5 6dbd 3637 513c 4f17 90bd eab5 0c3e
00000150: b177 a1bd a2a1 b83d 3003 f83d b2b1 eebd
00000160: f15a 1abf 21e4 753e 49ee f5be c8a2 27bf
00000170: 34d4 b73c 663a 63bd 3a84 dabc eb64 85bd
00000180: f8d7 c73e 121e 92bd 40c9 acbc 5d34 73bd
00000190: a35d 603e 163c 04bd 89dc e5bd f86f 503c
000001a0: 3f9b f2bd 3560 37bc d984 d83d fb1c bdbb
000001b0: 40a5 053d f1dd 91ba c6cf 51bc 2b91 3ebd
000001c0: 2164 05be 76c3 093e 4f19 393d b34a 133e
000001d0: 0f96 703e 5e32 d23d 6eae a93d c736 48bd
000001e0: dd14 42bd 1efe 723d f6da a1be e6b5 bc3d
000001f0: 9a82 313d 97fd 3c3d 1e97 833c bf4c 2d3e
-0.020672146 0.46373785 -0.09210078 -0.5537861 -0.110148385 -0.06356532 -0.14369197 -0.016013969
0.062049057 -0.031667795 0.11816453 -0.19609405 -0.08845892 -0.017056542 -0.032553185 0.14156057
0.03645287 -0.049643297 -0.05372343 -0.115818314 -0.18624419 -0.49764314 -0.14190383 0.01727938
0.26193237 -0.08183801 -0.10357208 -0.09892675 -0.23304437 0.25759563 -0.07241975 0.34319973
0.025343088 -0.48767102 0.06446236 0.04938001 -0.62069476 -0.10130673 0.39950913 -0.016729934
-0.0045309477 -0.11694428 0.32778287 0.06303603 -0.4138734 -0.34612006 -0.1723472 0.42325372
-0.25456852 -0.5679359 0.12087606 -0.11421871 0.09384179 0.07241782 0.1100785 -0.06506073
0.1279601 0.023500914 0.3194255 -0.007930557 -0.04308721 -0.20753722 0.13801499 0.1624632
-0.2786779 0.041498702 -0.10857582 0.10858423 -0.2020747 0.04195325 -0.031070786 0.037088707
0.35935554 -0.29796007 0.13625696 0.039499152 0.038234204 0.20717451 0.05735885 0.4224446
-0.05803461 0.012769511 -0.07035696 0.1374127 -0.078841574 0.09015204 0.12109983 -0.116549864
-0.60295016 0.24012806 -0.4803336 -0.6548276 0.022440054 -0.055475615 -0.026674379 -0.06513389
0.3903196 -0.07134642 -0.021092057 -0.05937611 0.2191072 -0.032283865 -0.11223704 0.012722008
-0.11846017 -0.011192371 0.10572214 -0.005771277 0.032628298 -0.0011128766 -0.012805885 -0.04652516
-0.13026477 0.13453469 0.04519015 0.14383964 0.23494743 0.10263513 0.08285223 -0.048880365
-0.047383178 0.059324376 -0.31612366 0.09214382 0.043337442 0.04614028 0.01606327 0.16923808

output_layer.weight f4 [1, 128]
00000000: d9a1 8a3c c5ea 993d 7e95 4f3b 281f 80bd
00000010: 6ccd 8e39 178b 9d39 0403 143b caa3 253b
00000020: 5cba acbb 82f0 9d3d 242e b93c e568 8e3c
00000030: 2f23 34bd 2bf5 50bb 45d8 c2b9 c44b e23b
00000040: 7319 bc3c 1a32 e73a 3b79 c9b9 82dc 703e
00000050: 4047 16ba 8e8c dcbc 6d30 d338 9263 c43c
00000060: db9f 723c d7e1 3d3a bdfd 343c 99a2 8b3b
00000070: 0eb5 fabb 290a ba3c 1d95 593c 5c3d 4c3d
00000080: b2cd 013c 6901 97bd 524c f1bc cc11 a93b
00000090: e519 64bd 0b22 8abc 47d8 513c 508d a1bc
000000a0: ab2a 9d3d e24d f7ba 8118 b23c b2d4 b9bb
000000b0: 976d 28bc 1fe3 01be 2c1f a13c 470f a73c
000000c0: ea9c 3c3a cd12 dcbb c564 133b 8598 933a
000000d0: c4d2 b538 e12a 78bb 77f6 3b3d 35a3 4d3b
000000e0: 0ffb e53c bf51 46bc 5598 4c3d 34f1 213d
000000f0: 92a3 8d3a c002 5c3a debe 513b 0c1e b13c
00000100: 0987 863b 182e 1fb9 08e1 213e 755f 0b3d
00000110: 4c93 bd3a 8a33 c9bc 0300 0d3c 186d edb9
00000120: a091 1d3d 8225 cf3a 4132 143b fdd5 ab3c
00000130: c675 053a ba95 bfbb 88cb a2bc 9f26 d03c
00000140: bf02 92bc b79b 743a 04ec 853a ce0e 803b
00000150: 65d7 a6bc b6eb b23b 59b3 dfba d580 343d
00000160: b99e f8bd f634 663d aa71 cfbd 4a38 dbbd
00000170: a676 443c eb53 9d3c c5e6 7d3c 6e35 88ba
00000180: d768 4d3c 0bd5 4abc a574 14bc 3151 c23a
00000190: 3e73 933d 23ac c9ba eccb 00bc a2fc 123b
000001a0: e3d5 be3c e3d2 adba 7ce8 90bc f237 103b
000001b0: b885 f23a c366 a3b8 cbdd 5cbc 550b 37ba
000001c0: 3196 8f3a d577 2a3b 32b3 8e3a 88c8 72bb
000001d0: 946c 643d 717d 213c a451 45bc 116f 99bc
000001e0: e02b e63a 67e7 8b3b 6cfe 063e 6dd2 6d3c
000001f0: 3c2c eb3b 6f8d 1c3b 845c 323c 49b0 053e
0.016922878 0.07515482 0.0031674798 -0.062559426 0.00027237402 0.00030049004 0.0022584805 0.0025274628
-0.005271239 0.07711889 0.02260501 0.017384002 -0.043978866 -0.0031884413 -0.00037163697 0.0069060046
0.022961354 0.0017638833 -0.0003842803 0.23521617 -0.0005732663 -0.02692249 0.00010070284 0.02397326
0.01480862 0.00072434306 0.011046824 0.0042613265 -0.007650978 0.022709923 0.01328018 0.049863204
0.007922577 -0.07373316 -0.029455338 0.0051595923 -0.055688757 -0.016861936 0.012807912 -0.019720703
0.07674154 -0.0018867815 0.0217402 -0.005671107 -0.0102800345 -0.12684296 0.019668184 0.020393027
0.0007195013 -0.0067161084 0.0022490483 0.0011260664 8.670011e-05 -0.0037867355 0.045889344 0.0031377797
0.028073816 -0.012104451 0.049949963 0.03953667 0.0010806194 0.0008392744 0.0032004635 0.021620773
0.004105453 -0.00015180593 0.15808499 0.03402658 0.0014463454 -0.024560709 0.00860596 -0.00045285444
0.038468957 0.0015804025 0.0022612961 0.020976061 0.0005091097 -0.005846706 -0.019872442 0.025409041
-0.017823575 0.00093310646 0.0010217433 0.003908015 -0.02036638 0.005460228 -0.0017067 0.044068176
-0.12139649 0.05620285 -0.101291016 -0.10704096 0.011991179 0.019205054 0.015496914 -0.00103919
0.012537203 -0.012379895 -0.009061013 0.0014825222 0.07199715 -0.0015386384 -0.007861119 0.0022428413
0.023295349 -0.0013261702 -0.017688982 0.0022006002 0.0018502986 -7.7915865e-05 -0.013480614 -0.00069825846
0.0010954795 0.0026011367 0.0010887145 -0.0037045795 0.05576761 0.009856568 -0.01204339 -0.018729718
0.0017560683 0.0042695287 0.13182992 0.014515501 0.007176904 0.0023888012 0.010886315 0.13055529
